save/actor.pth (torch, 491167 bytes, 5 tensors)

network.0.weight f4 [400, 3]
000000 15 9b 50 3e 3e e2 08 bf 0e be 28 3e ef 60 f3 3d
       0.20371659 -0.5347022 0.1647875 0.11883723
000010 54 58 29 3f 40 ac a0 bd 18 0c 9e be 0c 27 8b 3f
       0.66150403 -0.07845354 -0.30868602 1.0871291
000020 91 03 18 3e 44 7e 9f be 01 eb 43 3f e0 68 1e 3c
       0.1484511 -0.3115102 0.7653046 0.009668559
000030 3d 29 45 be de 3d 40 bf 89 4f 5e be 0f 92 16 bf
       -0.19254012 -0.750944 -0.21710028 -0.5881662
000040 93 ab 9a 3e bd b8 c7 be df 42 ff 3e f1 5a 0b bf
       0.30209026 -0.39008132 0.49855706 -0.5443564
000050 b8 55 b7 be 99 6a b5 be e3 42 80 be 96 ae 8c 3c
       -0.35807586 -0.3543289 -0.2505103 0.017173093
000060 60 47 7a bd 93 c2 7c bf fa ac 4c bd 3c 55 58 bf
       -0.061103225 -0.98734397 -0.04996965 -0.8450506
000070 24 7e 06 bf f7 27 a2 bc fe 9d 16 be c6 20 5d bf
       -0.52536225 -0.019794447 -0.14708707 -0.86378133
000080 11 28 bb bd 06 c7 8b 3e 25 78 03 3f 72 cf a6 3e
       -0.091385014 0.2730028 0.513552 0.32580143
000090 ca ba a2 be 68 e4 02 3f 5b ba 80 bd 64 f7 e7 be
       -0.31783134 0.5112977 -0.062855445 -0.45305932
0000a0 69 06 40 3f 13 9f 29 3e 65 87 ff 3e d7 2a ac 3e
       0.7500978 0.16564588 0.49907985 0.33626434
0000b0 e0 58 93 be 43 dd aa 3e 8b 22 5e 3e bd 47 80 3e
       -0.28778744 0.33371934 0.21692865 0.25054732
0000c0 bd 34 e3 be 68 cf 49 3e 8a dd dc be 05 86 21 bf
       -0.44376174 0.19708025 -0.4313777 -0.6309512
0000d0 e8 c6 b9 3e 57 9a 9e be cc e9 0e bf d0 48 72 3f
       0.36284566 -0.30977127 -0.55825496 0.94642353
0000e0 9b 63 64 3e d0 fc d5 3d 62 5b 88 3e 0c 2a d9 3e
       0.22303621 0.10448611 0.2663222 0.42414892
0000f0 82 53 b0 be 7f 84 35 bf 86 fc c6 be 93 b8 3e bf
       -0.3443871 -0.709053 -0.38864535 -0.7450039
000100 d9 aa 07 be 95 2c 24 3e 97 7c e9 3d ec 54 4a 3f
       -0.13248767 0.16032632 0.11400717 0.7903583
000110 41 9a 1c 3e 1e 74 83 3e de 87 12 3e 4b 96 01 3e
       0.15293218 0.25674528 0.14309642 0.12654988
000120 82 13 01 3f 7a 05 d3 3d 81 e4 ab 3e d4 5b 34 3f
       0.5042039 0.10303779 0.33572772 0.7045262
000130 ce 57 f0 bd 6e ce c2 bd 32 e6 4c 3e a2 88 c9 3e
       -0.117354974 -0.095120296 0.20009688 0.39362055
000140 c0 bc 21 3e 02 d8 7f be b2 12 70 bf 5e 3c 1e be
       0.15794659 -0.24984744 -0.93778527 -0.15452716
000150 e7 39 b7 3e 67 77 83 3f 6e e1 7d 3e 42 7f 97 3e
       0.35786363 1.0270814 0.24793026 0.29589278
000160 83 7c 8c 3f a5 75 80 3e 76 ac ff bd 0c 0a 02 bf
       1.0975498 0.25089756 -0.12484066 -0.5079658
000170 27 6b c1 3d 28 ad 3e bf 2a 5e 87 be 7e 0a 27 3e
       0.09444266 -0.74482965 -0.2643903 0.16312596
000180 13 60 74 be 98 b9 87 bd ed c1 51 bc 27 9e 49 bf
       -0.23864774 -0.06627196 -0.012802583 -0.78756946
000190 42 5a ce 3e f5 02 9d be 39 48 d7 be 9c 93 88 3e
       0.40303236 -0.3066632 -0.4204729 0.26675117
0001a0 40 73 b3 3d 27 95 d7 3e f0 87 9e 3e 71 a7 94 3e
       0.087622166 0.42105982 0.30963087 0.29033998
0001b0 02 a8 bc be 7a cc cd be 67 7a 38 3d 91 71 21 bf
       -0.3684693 -0.40195066 0.045038607 -0.63063914
0001c0 6f ef 62 3e 66 ba c6 3e ac 5d 54 3d 32 3a 1f bf
       0.22161649 0.38814086 0.051847145 -0.62198174
0001d0 bf ce f7 bd 38 92 12 bf a5 ba 18 3f 44 74 b7 bb
       -0.120999806 -0.5725436 0.59659797 -0.0055985767
0001e0 22 b4 ff be 78 09 e7 be 23 5d 88 3d 17 07 1d 3f
       -0.49942118 -0.45124412 0.066583894 0.61338943
0001f0 c2 81 4d 3e a9 74 9f be d7 a6 27 be 67 5a 4b 3f
       0.2006903 -0.31143692 -0.16372238 0.7943482
000200 5f 37 10 bc 81 33 f8 be 9b ef 23 3f fe f6 19 3e
       -0.008802264 -0.48476794 0.64037484 0.15035626
000210 dc a4 f5 bd df b2 15 bf 91 7b 87 3d 83 54 99 3e
       -0.11994335 -0.5847606 0.06615365 0.2994729
000220 f7 87 d7 be d8 78 0c be 0e b5 41 be 27 fc 4a bf
       -0.4209592 -0.13717973 -0.18916723 -0.79291004
000230 b9 7e a6 bc 42 26 f8 be a6 75 31 be 5d c2 ec be
       -0.020324098 -0.48466688 -0.17330036 -0.46242037
000240 24 c9 06 bd 75 fc 76 bf c3 95 2f be 96 4c 36 bd
       -0.032906666 -0.9647897 -0.17146973 -0.04450663
000250 e3 4c 7a bf eb 65 87 bd 43 18 02 be 33 3a 68 3f
       -0.9777357 -0.06611236 -0.12704568 0.90713805
000260 1c 7f 0c 3d f2 df 44 be b4 99 8e bd f7 2d cf bc
       0.03430091 -0.19226053 -0.0696291 -0.025290472
000270 8d 99 6a 3d 27 55 07 bf 40 b0 89 bc c4 ff 39 bb
       0.057275344 -0.5286431 -0.016807675 -0.0028381208
000280 55 27 a3 bf 24 44 77 be 88 e8 1b be b9 ce 9b 3f
       -1.2746378 -0.24147087 -0.15225422 1.2172462
000290 34 e0 df 3d 9b e9 aa 3e 94 98 e7 be c5 16 4a be
       0.10931435 0.33381352 -0.45233595 -0.19735248
0002a0 69 bf 4a 3d 21 c4 05 bf ad ff 5a be a9 59 83 3e
       0.04949895 -0.52252394 -0.21386595 0.25654343
0002b0 8b fe 2c 3f 1e 8a d4 3e 8d 45 7c 3d 5b d6 69 bf
       0.675759 0.41511625 0.061589766 -0.91342705
0002c0 d2 1f af bd 29 d2 f3 3e 40 b5 38 3c 2a 71 64 be
       -0.08550991 0.47621277 0.011273682 -0.22308794
0002d0 e1 89 9b be 9c bb 8a bf 0b c6 5b bc 74 8e bb 3e
       -0.3037863 -1.0838504 -0.013413916 0.3663212
0002e0 55 66 29 bf 9e c6 6c bd 82 d1 06 3f af 03 08 bf
       -0.6617177 -0.057806604 0.52663434 -0.5313062
0002f0 cc 52 0f bd 7d e6 1b bf 2d 24 92 3e 1e be 5f 3e
       -0.03499107 -0.6089857 0.28543225 0.21849868
000300 fa 4b d9 be 2e e9 d4 3e b8 63 b9 be 5f e0 a5 bd
       -0.42440778 0.41584152 -0.36208892 -0.08099436
000310 4c 15 0d bf 75 8c f9 3d a8 7a aa 3e 93 b0 78 bd
       -0.5511062 0.12184993 0.33296704 -0.06071527
000320 1b 89 93 be ff 7c 59 3e d1 5f a2 3f 28 e3 c5 3e
       -0.2881554 0.21239088 1.2685491 0.3864987
000330 14 39 fd be 9f 89 11 3e c3 aa f1 be c7 32 33 be
       -0.4945761 0.14212655 -0.47200593 -0.17499839
000340 08 cb 9f bd ce 69 5b 3e cb 38 ee 3e d9 6e fc 3e
       -0.07802397 0.2142708 0.46527705 0.4930332
000350 2f 5e ac 3e 28 92 43 bd 88 20 8a bf 0f 15 4f be
       0.33665606 -0.047746807 -1.0791178 -0.20222877
000360 79 01 57 be ad 55 04 3f 2a a2 56 be 59 53 f4 3e
       -0.20996656 0.5169323 -0.20960298 0.4771984
000370 2d b5 33 bd bd 5d a2 be ac b0 2f bf 93 f1 bf be
       -0.043873955 -0.31712142 -0.68628955 -0.37488994
000380 57 cb 6e bc fd a7 67 bf 64 dd 06 3f 16 7a fe 3d
       -0.014574847 -0.90490705 0.52681565 0.1242563
000390 e7 96 f9 bc 6f c1 66 3f e3 e8 e4 3d e2 39 ec be
       -0.030467464 0.90138906 0.11177232 -0.4613791
0003a0 39 1c 0d bf b2 32 1f 3e 66 56 99 3d 44 71 f2 be
       -0.5512119 0.15546682 0.07487182 -0.4735204
0003b0 e6 42 b1 3d 94 d0 92 be 99 36 3a be a3 b7 34 3e
       0.08655338 -0.28674757 -0.1818489 0.17648177
0003c0 30 17 3b bf 6b 1d e7 3d a1 aa 8e be 43 52 12 3e
       -0.73082256 0.11284908 -0.27864555 0.14289193
0003d0 a7 10 be be a5 4e df bd 88 50 d0 3d 3d e9 60 3f
       -0.3712208 -0.10903672 0.1017161 0.87855893
0003e0 ba a9 ae 3e 47 53 36 be e6 7c 5a bf 2b 81 f7 bd
       0.34113866 -0.17805205 -0.8534683 -0.12085184
0003f0 31 98 02 bf 74 1a 9e 3e c9 d6 23 be 5b 18 17 3e
       -0.51013476 0.30879557 -0.15999903 0.14755385

network.0.bias f4 [400]
000000 34 77 09 bf 46 d0 9a be 17 ab 07 3f 0a 82 69 3e
       -0.53697515 -0.30237025 0.5299544 0.22803512
000010 69 a6 e6 bd f6 7f ab 3e 2b f8 f6 be c9 c8 7a 3e
       -0.11262209 0.33496064 -0.48236212 0.24490656
000020 50 d9 09 3d a7 69 a6 3d bd 71 70 3e c3 0e 10 bf
       0.03365451 0.0812562 0.23480888 -0.56272525
000030 6c 6c 18 3e a7 b7 81 3e ea 40 cf be 52 04 13 bf
       0.1488511 0.25335428 -0.40479213 -0.5742847
000040 a2 68 e7 bd 4f 11 b7 3e ae b5 e9 3d f1 e5 d0 be
       -0.11299254 0.35755393 0.11411606 -0.4080043
000050 6a 8c 0b 3f 44 18 4c bd 18 cf 8f be b9 9f 04 bf
       0.5451113 -0.04982783 -0.28087687 -0.5180622
000060 3a 46 2c bf 2a 1f 21 3d b6 c3 a9 be e0 5c c4 bd
       -0.6729466 0.03933636 -0.33157128 -0.09588027
000070 4e ac f1 3d 9b 1f 95 3e 4a 1e dd 3e fa fa a1 3e
       0.11800443 0.29125676 0.4318717 0.31636792
000080 b5 4d 2b 3d 95 68 03 3f b8 7a 81 3e f9 19 24 bf
       0.041822154 0.51331455 0.2528894 -0.6410213
000090 30 42 8a bd c9 f7 cc 3e fa 4d 4c 3d a6 5d dc be
       -0.067509055 0.40032795 0.04987905 -0.43040198
0000a0 95 a7 ed 3e fe 71 cf be d5 d2 6e 3e 09 c9 03 3e
       0.46416917 -0.40516657 0.23322614 0.12869658
0000b0 de 00 85 3e 3b 39 d3 3b 05 3a cd bd 8e 3c 80 3e
       0.25977224 0.0064460314 -0.10020832 0.250462
0000c0 cc 73 66 3e f8 e8 48 3e f0 6c 23 3e 94 77 2b be
       0.2250511 0.1962012 0.15959525 -0.16744834
0000d0 2c 55 8d 3e c1 62 96 3e b3 e6 09 3e 67 4a 78 be
       0.27604043 0.29372218 0.13466911 -0.24247132
0000e0 2f ea 1b bc ad ee 9c be 7b 80 1f 3d 7d e0 f6 bd
       -0.009516283 -0.30650845 0.038940888 -0.120545365
0000f0 a6 9e 1b 3d 90 66 62 be 7f c4 af be fb 81 94 3e
       0.037993096 -0.22109437 -0.34329602 0.29005417
000100 a7 fd fd 3e a4 73 99 3e 2c 70 d2 be 1f 0e dc bd
       0.49607584 0.2997104 -0.41101205 -0.10744881
000110 20 3f 98 3e 2c b1 58 3d 27 26 ed be 70 2b 60 3e
       0.2973566 0.05290334 -0.4631817 0.2189157
000120 7a b0 49 3e 47 6e 2d bf 3c 36 97 3d 04 a2 ac 3e
       0.19696227 -0.67746395 0.07383391 0.33717358
000130 7d dc b0 3e aa de e9 3d 73 cd e3 be 49 18 1c bf
       0.3454322 0.11419423 -0.44492683 -0.60974556
000140 99 96 a4 bd ec 4b 08 be 9e 38 a7 be 35 a2 3d bd
       -0.08036537 -0.13310212 -0.32660383 -0.04629727
000150 de 8f 6a bb 81 78 99 bd 03 3a e5 3e 63 d7 4f 3e
       -0.0035791318 -0.074936874 0.44770822 0.20297007
000160 73 4b cb 3e 87 1c 79 be 3e 4b 05 bf ca ee 07 3e
       0.39706 -0.24327289 -0.52067935 0.13274685
000170 bd d3 bf bd 68 34 95 be 25 0b 7d 3e 35 fe 34 3e
       -0.09366558 -0.29141545 0.24711283 0.17675097
000180 f3 48 16 3e 09 70 c0 be cb 74 db be af 89 af 3e
       0.14676265 -0.37585476 -0.42862543 0.34284732
000190 ab 09 a6 be 57 89 78 bd 3c 91 c5 be 7f 47 a4 3e
       -0.3242925 -0.060677852 -0.38587368 0.32085797
0001a0 56 e2 e0 bd 03 68 73 bd 59 9d bf 3e 29 70 30 bd
       -0.1098067 -0.059425365 0.37424734 -0.043075714
0001b0 b9 02 b9 3d 34 e7 21 bd 09 45 17 bb 84 fa 04 3f
       0.090337224 -0.039527133 -0.002308192 0.51944757
0001c0 a2 21 87 be 44 7f 92 be c5 25 ce be ad af 16 be
       -0.26392847 -0.2861272 -0.4026319 -0.14715452
0001d0 fa fb 86 bd 2b 41 78 be 17 20 c1 be e2 d4 1e 3e
       -0.065910295 -0.2424361 -0.37719795 0.15510896
0001e0 ec f1 20 bf b2 c6 84 3d af 01 a8 bd d2 0f ef be
       -0.62869143 0.064832106 -0.08203446 -0.46691757
0001f0 dd c2 37 bf 25 3a 06 3d 00 cb e0 be 54 d2 55 3d
       -0.7178171 0.032770295 -0.43904877 0.052202538
000200 5e 4c 20 be c5 59 c1 3d 9c 5d 51 bd bf d1 ef be
       -0.15654132 0.0944095 -0.051114663 -0.4683971
000210 ed db 24 bf 05 6a 79 3e 1b 50 2d 3e 39 8c cb 3e
       -0.6439808 0.2435685 0.16925089 0.3975542
000220 97 81 e3 bc cc 54 c9 be 26 c3 23 be 3a 98 ab be
       -0.027771754 -0.39322507 -0.15992412 -0.33514577
000230 f5 b7 d9 be 51 d6 38 3e 54 47 cd 3e 0f 19 32 bf
       -0.4252316 0.18050505 0.40093482 -0.69569486
000240 fc a8 3c 3e 64 63 61 3e 18 95 bb 3c 03 24 c7 bd
       0.18423837 0.22010571 0.022898242 -0.097236656
000250 1b 59 46 bf 46 c4 12 3e af 9c 16 be 71 f9 af 3c
       -0.77479714 0.14332685 -0.14708208 0.021481248
000260 c3 07 e6 3e 23 2f 50 bd 51 69 2c 3e a2 db 19 be
       0.44927797 -0.050826203 0.1683705 -0.1502519
000270 a0 21 41 3e 7c a1 5e 3b 68 79 55 bf 25 27 18 be
       0.18860483 0.0033970764 -0.83388376 -0.14858682
000280 5f 84 4c bf 29 a1 1e bf b5 71 e9 be 53 34 cb 3e
       -0.7988948 -0.6196466 -0.45594564 0.39688358
000290 d6 68 96 3e ad 2e 84 3d 04 a5 03 bf 28 96 a2 3e
       0.29376858 0.06454215 -0.5142367 0.31755185
0002a0 70 43 ea be dd d8 b0 bd ed 0d 1e 3b f3 e3 cb be
       -0.45754576 -0.086351134 0.0024117187 -0.3982235
0002b0 15 d3 d2 bd 0a c1 0a bf 14 bf 86 be 78 9c dd be
       -0.10294167 -0.54200804 -0.26317656 -0.4328344
0002c0 ae 13 b8 3d e1 12 b6 3e ab 99 b4 be 3e fe 70 3e
       0.089881286 0.35561278 -0.3527349 0.23534486
0002d0 de 14 a5 be 3a 8a 3a bf c8 d1 8f bd b0 73 ea 3d
       -0.32242483 -0.72867167 -0.070224345 0.11447847
0002e0 df 81 b4 3e 5a d8 4b bf 55 66 ad be 9b 7e 54 be
       0.35255334 -0.79627 -0.33867136 -0.20751421
0002f0 d3 b0 49 3e d2 eb 64 be da 15 82 3e f4 cf 6b 3e
       0.1969636 -0.22355583 0.25407296 0.23028547
000300 e2 54 1f be e7 26 d9 3d d7 ea a2 3e 36 85 93 3e
       -0.15559724 0.10603123 0.31819794 0.2881257
000310 f2 1a 34 3e 3d bd 3c 3b 40 80 e7 bd e5 b1 2e 3e
       0.17588404 0.0028799318 -0.113037586 0.17060049
000320 4e 3b 6d 3d fb 62 f5 3d 84 0d 84 be f6 ee 9f 3e
       0.057917885 0.1198177 -0.25791562 0.31237
000330 d7 67 51 3e 5e 79 fd 3e b8 af c1 be ff 11 c0 3e
       0.20449768 0.49506658 -0.37829375 0.3751373
000340 e0 f7 0a bd 6c e9 9c 3e e1 78 f3 be c0 fb 14 be
       -0.0339278 0.30646837 -0.4755316 -0.1454916
000350 cf d1 eb bd c4 fb 0c 3e d1 68 c2 be 63 44 23 bf
       -0.11514627 0.13767916 -0.37970594 -0.63776225
000360 61 c8 09 3f d7 dd e1 3c 84 c9 31 3e 44 d4 90 3d
       0.5382138 0.027571602 0.17362028 0.070717365
000370 8d f5 48 3d 09 33 c9 3d 41 25 48 3e 6f 74 65 be
       0.0490623 0.09824187 0.19545461 -0.22407697
000380 04 c1 e5 3c 93 1e 00 bf 42 f3 5b be 77 18 04 be
       0.028046139 -0.5004665 -0.21479514 -0.12899958
000390 f1 10 ab 3e 79 18 0b 3e 64 8b 5b 3e 8c 9e d6 3e
       0.33411363 0.13583554 0.21439892 0.41917837
0003a0 ec e4 d2 3d 61 b7 c9 bd 6e 9d 8d be 01 6e 8f 3e
       0.1029757 -0.0984943 -0.27659172 0.28013614
0003b0 ff 9d bf be fd c2 ff 3d ed 6f 22 bf 10 c0 f8 3d
       -0.3742523 0.12488363 -0.63452035 0.12146008
0003c0 7e b1 de 3d 7b 98 9c 3d 6f 08 0e 3d cf a9 2e bf
       0.10873698 0.07646271 0.03467601 -0.6822786
0003d0 96 11 9c 3d 6a eb a4 bd 67 a3 06 bf cc f4 be be
       0.07620542 -0.08052714 -0.5259308 -0.3729614
0003e0 e6 8f 40 be 53 97 00 3e de 8c 23 3d 46 85 4b be
       -0.18804893 0.12557726 0.039929263 -0.19875059
0003f0 e2 fa 86 be 49 57 84 be eb b1 c8 be 9f 2b 96 bd
       -0.26363283 -0.25847843 -0.3919824 -0.07332539

network.2.weight f4 [300, 400]
000000 a0 9c 92 bd 34 e8 2d bd 3f a4 2c be 10 5c cd bd
       -0.0715878 -0.042457774 -0.1685953 -0.10027325
000010 7e 64 a3 b9 f9 6f 11 bd fd d8 5e 3d fd b2 41 3e
       -0.00031164655 -0.035507176 0.054406155 0.18915935
000020 77 07 e9 bd 1a b8 92 3e 40 9c 28 bc 6d d1 5d 3d
       -0.11378377 0.28656083 -0.010291159 0.054154802
000030 3d 2c 64 bd 7e 00 bc bd 32 d4 01 3d 61 23 5e ba
       -0.05570625 -0.091797814 0.031696506 -0.00084739
000040 91 52 aa bd 34 e8 e6 bb 13 76 a2 3d 07 15 86 bc
       -0.083165295 -0.0070467237 0.07932677 -0.016367448
000050 b9 be 33 bd de 0e 8e 3e 0d 06 2a be bd d5 ab bd
       -0.04388306 0.27745718 -0.1660387 -0.08390377
000060 68 3d 14 bd 0b 72 0b 3d e1 1f c7 bd 4e c3 34 3a
       -0.036191374 0.034044307 -0.09722877 0.0006895558
000070 a7 3e d8 be ad b0 c5 be 12 0e c4 3d 02 d3 76 3e
       -0.422353 -0.38611355 0.09572996 0.2410393
000080 e3 2a a8 3d 66 93 a2 3c b1 d3 11 3e 6f b2 44 be
       0.08211305 0.019845676 0.1424091 -0.19208692
000090 98 0a 44 3c 35 4a 53 3e 0f 19 50 be fe 2b 98 bd
       0.011965416 0.20633776 -0.20322059 -0.07430266
0000a0 13 34 00 3e 70 07 43 3d f5 53 fc bd dd 2e 91 3d
       0.12519865 0.047614515 -0.12320701 0.070890166
0000b0 34 70 3f 3e f8 b5 83 be a1 6a 28 be 57 a3 1b 3d
       0.18695146 -0.2572477 -0.16446926 0.03799757
0000c0 85 49 04 be de a2 12 be 30 d7 f6 bd dc 61 52 3e
       -0.1291867 -0.14319941 -0.120527625 0.20545143
0000d0 00 e3 bc 3b b4 df 11 bd 7b 46 0d be b2 64 53 bb
       0.005764365 -0.03561373 -0.13796417 -0.0032256064
0000e0 66 1c e7 bc 2a b1 51 be a9 f7 98 be 6e ca 44 bd
       -0.028211784 -0.20477739 -0.2987645 -0.048044614
0000f0 f8 a9 7b 3d b3 da 86 be 42 52 33 bf 7f 10 17 3e
       0.06144139 -0.2633873 -0.7004739 0.14752387
000100 55 81 0a bd 74 8d 51 3e f5 13 3b 3c 0e c6 b1 be
       -0.033814747 0.20464116 0.011418332 -0.34721416
000110 95 50 94 bc 79 c9 06 bd 27 92 90 bd b4 0e 18 be
       -0.01810483 -0.032906983 -0.07059126 -0.14849359
000120 f7 2e 35 bd 09 7d a6 3d 5a 09 8f 3e a4 57 da 3c
       -0.044234242 0.08129317 0.27936822 0.026653118
000130 01 97 af be bd 1e 1b 3e ec b7 29 be 16 59 90 bd
       -0.34294894 0.15148444 -0.16574067 -0.07048242
000140 3d 32 20 3d 38 e6 87 be 49 48 78 be 9a 4b 8f bd
       0.03911041 -0.2654283 -0.24246325 -0.06996842
000150 a1 60 76 bd 18 a7 33 bf ed 87 c6 bc 0c 85 8c 3c
       -0.060150746 -0.7017684 -0.024234736 0.017153285
000160 49 1f bf 3d 3b 60 d8 bd f3 76 80 3d c4 85 61 3d
       0.09332139 -0.105652295 0.06272688 0.05505921
000170 4a 27 d1 bd 22 c7 96 bd 4e 3d 42 be 22 a1 f2 3d
       -0.10212572 -0.073622 -0.18968698 0.1184714
000180 a2 80 d1 3d ca 5a ba 3d 44 15 90 bd 54 5c 40 bd
       0.10229613 0.09099348 -0.07035306 -0.04696305
000190 f0 ab c0 be 91 30 3c bf 2f 18 2f 3d c7 a0 f9 bd
       -0.37631178 -0.73511606 0.042747673 -0.12188869
0001a0 86 2b 29 be f8 69 70 be 81 3a 72 bd ea 0b 09 bf
       -0.16520509 -0.23477924 -0.059137825 -0.53533804
0001b0 cb 7b c4 3b ce 0c 1d be 04 3a 13 bc 34 30 de 3c
       0.0059962026 -0.15336916 -0.008986 0.027122594
0001c0 64 d9 81 bd 9d 07 25 bb f9 58 bb bd 60 f5 e2 bd
       -0.06340292 -0.002518154 -0.091478296 -0.11081958
0001d0 1b 98 08 be b8 5b 5e be fc 9a 79 3c 59 35 7c 3d
       -0.13339274 -0.21714675 0.015234705 0.061574314
0001e0 5e a1 01 bf 07 31 df ba 2b a4 63 be 15 0e f2 bc
       -0.5063685 -0.0017028161 -0.22230594 -0.02954773
0001f0 21 8b 51 3d 33 30 77 bd 46 e3 45 be f2 ff bf 3d
       0.051158074 -0.0603487 -0.19324979 0.093749896
000200 11 78 07 be a2 50 0e bf 18 6c 84 3e 6d 5a 1a be
       -0.13229395 -0.55591786 0.2586372 -0.15073557
000210 66 b7 47 be 7b 24 2d 3e 9d 66 f8 bd 4a 5f 8c 3c
       -0.19503555 0.16908447 -0.12128947 0.017135281
000220 35 a8 eb bd e8 78 81 3d c6 09 a8 bd d1 94 eb be
       -0.11506692 0.06321889 -0.08204989 -0.46011975
000230 70 cd 9b 3e ff 43 b2 be 62 ea 43 bd 02 4a f3 bd
       0.30430174 -0.34817502 -0.047830947 -0.1187935
000240 f7 01 1c be 0b 51 a3 3d c1 42 b0 3c 5a 53 f5 bd
       -0.15235125 0.07974442 0.021516206 -0.11978789
000250 02 3b 8c 3e 2b 21 6b 3d 9c 95 06 bb 3c 37 31 be
       0.2738877 0.05740468 -0.0020535951 -0.17306226
000260 f6 80 10 3d ae f1 1a bc 65 0d b8 bc 0d 39 a5 3d
       0.035279237 -0.009457035 -0.022467325 0.08067522
000270 ae 9d 61 3e ca 4a 06 3e 1f cd 86 3e 69 62 8a be
       0.22032806 0.13114467 0.2632837 -0.27028206
000280 f6 b0 8a 3d 1f f7 ed 3d 6d a6 90 bd 18 32 1e 3e
       0.06772034 0.116194 -0.07062993 0.15448797
000290 ad b2 9b bd 82 59 9c 3d d6 11 05 be 77 49 9f bc
       -0.07602439 0.0763426 -0.12995085 -0.01944421
0002a0 5d 81 3f 3c 38 48 f3 bb 17 cd 8b bd 0c a3 52 3d
       0.011688557 -0.0074243806 -0.06826227 0.051425025
0002b0 bf f5 a3 3e 9e 5f 02 3d cd 8b 97 bc 68 10 5a bd
       0.32023427 0.03182947 -0.01849928 -0.053238302
0002c0 cc 6b 08 be e2 79 a9 be 12 41 2e be 5f ce f1 be
       -0.13322371 -0.33100802 -0.1701701 -0.4722776
0002d0 2a 45 7f be 31 d0 45 bd 5b 98 c5 be 8c 38 ff be
       -0.24928728 -0.04829425 -0.385928 -0.4984783
0002e0 83 9f 05 3e 05 fa 21 be 29 d2 27 be 81 09 23 bd
       0.1304913 -0.15818031 -0.16388763 -0.039803986
0002f0 1e 5e 51 bd 9a ca bd be 44 17 b8 bc 9d 5a 3e bd
       -0.051115148 -0.37068635 -0.022472031 -0.046473134
000300 b2 02 a4 bc 43 69 1c be ac b2 39 3e 0b 29 1e bd
       -0.020020816 -0.15274529 0.18134564 -0.03861336
000310 5f 4c 27 3e d7 7d 59 3e ec 3f 97 bc 19 c5 c7 3c
       0.16337727 0.2123941 -0.018463098 0.024385976
000320 49 36 00 be ce 35 ba be 24 7f 2c bd f1 5d 6d 3d
       -0.12520708 -0.36369175 -0.04211344 0.057950918
000330 0b de 7d 3d 16 6c cd 3b 2b 2a 77 be 54 a5 2b 3b
       0.061979335 0.0062689884 -0.2413718 0.0026191073
000340 99 00 ab bd 33 9f 96 be 89 ac 7e bf 6f 03 be 3d
       -0.08349723 -0.29418334 -0.9948202 0.09277999
000350 fd 88 e8 bd e3 83 21 bf b5 fe b6 3c c4 d2 04 be
       -0.113542534 -0.6309187 0.02233825 -0.12971026
000360 c6 47 10 3e 42 4c 9b bd 11 7d 32 be fa ec 90 bc
       0.1408988 -0.075829044 -0.17430522 -0.017691124
000370 7f 32 10 ba bc e2 03 3c 5b 79 84 be be 26 d9 3d
       -0.00055006886 0.008049663 -0.25873837 0.106030926
000380 a8 b9 4f be 5a a9 10 bd c6 3d a1 bf fa ed 85 3d
       -0.20285666 -0.035317756 -1.2596977 0.06539531
000390 99 e9 ed bc 1a db 30 3d f9 e3 5e 3e b1 72 1b 3e
       -0.029042052 0.0431777 0.21766652 0.1518047
0003a0 be 54 65 be 15 b7 58 3e 7a c5 83 be e1 25 83 bd
       -0.22395608 0.2116359 -0.257366 -0.06403709
0003b0 f9 cd 3d 3d e4 eb 13 3e ac f2 6e bc 71 19 f8 3d
       0.04633901 0.14445454 -0.014584225 0.121142276
0003c0 af 1f 5d 3e f8 e7 23 3d aa a5 b9 be f5 59 ca bc
       0.21594118 0.040016145 -0.36259204 -0.024701098
0003d0 f7 6b 5d bd c5 6a 89 be 1b 0e fb 3d 43 0a a8 3c
       -0.05405804 -0.2683927 0.1225855 0.020512706
0003e0 2c 79 55 bf b6 de 5b 3d 37 e0 41 be c8 eb 64 bc
       -0.8338802 0.05367919 -0.18933187 -0.01397223
0003f0 ee 6d f3 bd 9c 83 76 bd 0c 07 72 3e 65 3c 98 3e
       -0.11886202 -0.060184106 0.236355 0.29733577

network.2.bias f4 [300]
000000 5a 49 a8 bd 4d 6c 8b 3c 75 07 05 bd dc 36 01 3d
       -0.08217116 0.017019415 -0.032477815 0.03154646
000010 79 db 42 3d a1 4a 06 3d 89 a8 72 bd 02 a0 2b bd
       0.047572587 0.032786015 -0.05924276 -0.041900642
000020 db 74 bd bb ec 5c 13 3d 03 0d 92 3c e2 14 0c bc
       -0.0057817525 0.03597729 0.01782847 -0.008549901
000030 31 20 d3 bc aa 2c e5 bd 08 13 d2 bd fc 85 39 bd
       -0.025772186 -0.111901596 -0.10257536 -0.045293793
000040 5d e1 92 3d 03 a6 4b 3e 92 84 0b be 00 89 10 bc
       0.07171891 0.19887547 -0.1362479 -0.008821726
000050 f3 5f c0 3d 48 89 7c bd 4f 36 4e be 65 2f a1 bc
       0.09393301 -0.06165436 -0.20137905 -0.01967592
000060 04 c0 4a bd 3a bf 37 3d 50 35 1b 3d c4 71 4a bd
       -0.049499527 0.044860102 0.03789264 -0.0494249
000070 56 d0 23 be 33 64 a5 bd 22 a2 2d bc ef 9d c9 bc
       -0.15997443 -0.08075752 -0.0105977375 -0.024611441
000080 3d 54 a8 bc c1 54 4f bc af 59 73 ba 45 4d 66 bd
       -0.02054798 -0.012654484 -0.0009283078 -0.056226034
000090 77 27 b5 3d 34 e4 fd 3b 0e 89 d5 bd c4 ff 00 be
       0.08845418 0.007748151 -0.10426532 -0.12597567
0000a0 b3 f3 20 3d a4 fb 16 3d 97 7d c1 bd 84 4b 83 3d
       0.03929491 0.036861077 -0.094477825 0.06410888
0000b0 3c 1a 03 be 97 ed 9b 3d 8d ee 88 bc ef c3 08 3d
       -0.12802976 0.07613676 -0.016715312 0.03338998
0000c0 b1 2e 60 be 77 24 1c 3c 6f 9d d3 bd 05 7f 23 be
       -0.21892811 0.009530178 -0.103327624 -0.15966423
0000d0 56 d7 99 bd 3b b1 76 be 5d 17 b4 3b 3b 5f ad bc
       -0.07511775 -0.24091046 0.005495949 -0.021163573
0000e0 d7 90 54 be ae a9 87 3c 40 85 17 3e 3b b0 b1 bc
       -0.20758377 0.016560402 0.14796925 -0.021690479
0000f0 ff f1 92 3d 5e 51 1a 3d bb 0f a7 bd fb 4f 88 3b
       0.07175063 0.037675254 -0.08157297 0.004159925
000100 64 99 8b 3c 11 a7 95 bd 6c e9 dd bd fa aa e0 bd
       0.017040916 -0.07307256 -0.10835537 -0.10970111
000110 fe 74 5b be 6d 76 85 3b 59 64 31 3c 2e c2 f8 3c
       -0.21431348 0.0040729553 0.010827147 0.03036603
000120 1f 78 3c be de f7 4a 3c ba 5f 88 3d 52 20 46 be
       -0.18405198 0.012388198 0.066588834 -0.19348267
000130 df f5 82 3d cd 15 9e bd bd 72 ac bd ec 34 7f bd
       0.063945524 -0.07719002 -0.08420322 -0.06230633
000140 86 e3 82 bc 49 ae ee bd 9d ce e9 bd 92 1a 93 3d
       -0.015977632 -0.11654336 -0.114163615 0.07182802
000150 d7 26 6e bd 83 3d 2b be a8 25 c2 3b 4d b4 df bc
       -0.05814251 -0.16722684 0.005924899 -0.027307654
000160 e4 34 45 be 7d 07 42 bc 33 3c d9 3c fc 33 13 be
       -0.19258457 -0.011842606 0.026517963 -0.14375299
000170 ad 24 0a bd cf fd 28 3d e9 56 2d 3d cc b0 27 be
       -0.033726383 0.041257676 0.042319212 -0.16376036
000180 b9 00 54 3d af 9b d9 3c aa db a9 3c 2d 26 8c bc
       0.0517585 0.026563494 0.020734627 -0.017108047
000190 c6 d4 d1 3d 86 bc a5 3c e7 52 4f 3b 91 ea a2 bd
       0.102456614 0.020231497 0.0031635107 -0.07954896
0001a0 9e ef 05 be f2 20 1b bb ff 26 69 be 66 11 37 bd
       -0.13079688 -0.002367076 -0.22768782 -0.044694327
0001b0 b6 5b 9f bd cc fc 9a 3d 6c 64 3c bd 56 a1 57 bd
       -0.07781164 0.075677484 -0.045994207 -0.052644096
0001c0 4f 14 55 be ac 2c f9 bd 89 57 f9 bd a6 0c e7 bd
       -0.20808528 -0.121667236 -0.12174899 -0.112817094
0001d0 db 2b 37 bd 72 21 76 bd 54 7a 2a bc 20 e6 de bc
       -0.04471956 -0.06009049 -0.010405142 -0.027209342
0001e0 f9 2e 1e 3c 34 64 94 bc 82 32 a8 bd f9 07 24 bc
       0.009654754 -0.018114187 -0.082127586 -0.010011666
0001f0 35 c6 5a bd 77 86 11 bc 01 8e 37 bd 3f d0 1e bd
       -0.05341168 -0.008882157 -0.04481316 -0.038772818
000200 37 30 c3 3c 1c 36 19 bd cf 31 f8 bd 74 85 ff bd
       0.023826702 -0.03740512 -0.12118875 -0.12476626
000210 de 52 ea bd b0 ae 85 bc f9 05 2c 3d 1c ac 11 bd
       -0.11441587 -0.016318649 0.041997883 -0.035564527
000220 55 02 d3 bb 34 22 67 bd ab 94 51 be 0d 58 33 bd
       -0.006439487 -0.056429103 -0.20466869 -0.043785144
000230 7d df 7f bd 96 9a 09 be d4 6f 8a be 05 e5 de 3d
       -0.062468994 -0.13437876 -0.27038443 0.10883526
000240 9d c8 80 bd 2b e1 4c bd 41 04 08 be a2 00 cf 3c
       -0.06288264 -0.050019424 -0.13282873 0.025268856
000250 73 0e 8d bd 5d af 16 3d 89 f2 c0 bd 34 e2 40 bc
       -0.068875216 0.036788333 -0.0942126 -0.011772681
000260 41 6e 2b 3d f2 b3 13 bd 31 f3 22 bd b2 a4 c6 bd
       0.041853193 -0.03606028 -0.039782707 -0.09699382
000270 d7 99 a4 3d a4 5b 5e 3e 97 00 e3 3c 46 32 0f be
       0.08037155 0.21714646 0.027710242 -0.13984022
000280 a4 20 24 be 22 e8 55 be 32 72 a9 bd 13 5a c2 bd
       -0.16028076 -0.20889333 -0.08273734 -0.094898365
000290 cf 4e 3e bc ea ed 9c bd 92 57 5f 3e 34 54 74 3c
       -0.011615469 -0.07662566 0.21810749 0.014912654
0002a0 7c 73 59 bb e0 82 85 bd 90 60 76 3c e8 25 22 bd
       -0.0033180406 -0.06519103 0.015037671 -0.03958693
0002b0 0b 2e c8 bd 05 5a 1f 3c 68 0c dd 3c 38 09 15 bd
       -0.09774407 0.009726052 0.026983455 -0.036385745
0002c0 e2 1d ad bc f2 7a 34 bc 99 1f 3b bd d2 f0 03 be
       -0.021132413 -0.011015641 -0.04568443 -0.12884834
0002d0 35 46 a3 bc 9f ca fc 3c e8 ee 50 3b c9 84 92 bd
       -0.019930938 0.030858336 0.003188068 -0.07154233
0002e0 77 35 9b bc 46 0e e3 bd 41 4f 7f bb 47 8b 4f bd
       -0.018946392 -0.11086707 -0.003895715 -0.050669935
0002f0 3b d4 1c bd 6b 0b 36 3c cf 0c 6c 3c 3a 40 e0 bd
       -0.038288336 0.011111121 0.014407351 -0.1094975
000300 67 36 13 bd 01 41 37 3c 43 bb bf bd 9c 13 9a bc
       -0.035940554 0.011184932 -0.09361889 -0.018808179
000310 09 90 3d 3b d5 05 42 bc 14 47 a5 bd aa 50 b9 bc
       0.0028924963 -0.011842211 -0.08070198 -0.022621471
000320 1f 4f 82 be bb 3c ef 3c 98 8f 08 be 97 cc 8b bc
       -0.2545099 0.029203763 -0.13336027 -0.01706533
000330 8d 7f 54 bd 76 5a 1e bd ec aa ef 3c 3b c1 89 bd
       -0.051879454 -0.03866049 0.029256307 -0.06726309
000340 a7 84 5f be 96 5d e9 bd d1 ee a4 bd 32 d4 6b bc
       -0.21827947 -0.11394803 -0.08053363 -0.014393853
000350 40 7b 88 3d be 55 0b be c1 fb f3 3b 1a 99 9d bd
       0.06664133 -0.13606927 0.007445783 -0.076952174
000360 46 fe 29 bc 2a bf 4b bc 82 80 28 bd 5b 80 d2 bc
       -0.010375565 -0.012435714 -0.04113818 -0.02569597
000370 e2 25 05 be ba 5d 1e 3d ad e0 9e bd 69 38 c0 3d
       -0.13002732 0.038663603 -0.07757697 0.093857594
000380 e7 f1 de bd de 03 2a be 35 2f 91 bc 2d d0 79 bd
       -0.10885983 -0.16603038 -0.017722705 -0.060989548
000390 ff 67 20 3d e2 5e c3 bd bd 1f a7 bc 3b d9 6e bc
       0.03916168 -0.09539582 -0.020400876 -0.014578159
0003a0 bc ca c4 3b 19 b0 27 bc 8f d7 37 bc a1 41 4e 3c
       0.006005613 -0.010234856 -0.011220827 0.012588889
0003b0 02 84 01 bc 28 cf 2d 3d 38 a4 c2 3b 67 17 14 bd
       -0.007905008 0.042433888 0.0059399866 -0.03615513
0003c0 06 6d 45 bd d8 b9 d0 bc d3 e5 3a 3d 5b 03 3d bc
       -0.048199676 -0.025479242 0.045629334 -0.011536445
0003d0 13 a8 8d bd 3c 78 02 bd 4a 07 cf bd 65 6e 63 3d
       -0.06916823 -0.031852946 -0.10108812 0.055525202
0003e0 be 75 1c be 45 4a 35 3d ab 52 9a bd cd 70 a8 bd
       -0.1527929 0.044260282 -0.07535299 -0.0822464
0003f0 69 69 27 3d fe d2 c2 bd 3d 0b dd bb 67 c4 53 bc
       0.04087201 -0.095129 -0.0067457245 -0.012925244

network.4.weight f4 [1, 300]
000000 d3 17 ad 3e f7 e0 54 bd 63 95 43 bd 01 e9 0b 3d
       0.3380724 -0.051972356 -0.04774989 0.034157757
000010 41 b8 ba 3e b3 df 26 3f ca 26 39 be 8f 6b 8f 3c
       0.364687 0.6518509 -0.18081203 0.017507343
000020 64 73 46 3f 70 0a 10 c0 45 41 4e 3c eb 63 a6 3e
       0.7751982 -2.250637 0.012588804 0.32498106
000030 0e 78 0b bf 18 fe 07 3e f7 94 92 bf 80 93 41 bc
       -0.54480064 0.13280523 -1.145171 -0.011814952
000040 33 d0 ae 3e d6 08 93 3e 29 80 70 be 10 75 31 bd
       0.34143218 0.2871768 -0.23486389 -0.04332453
000050 45 5b 01 be c4 2f ef 3c 80 62 b3 3c 76 cc b2 3e
       -0.12632473 0.029197581 0.021897554 0.34921616
000060 67 40 75 bc 88 50 17 be ee f1 fc bd e3 26 b6 3d
       -0.014968968 -0.14776814 -0.12350832 0.08894136
000070 a6 75 36 bd 62 ba 65 be 47 89 28 3d 8b aa 1a 3c
       -0.044545792 -0.2243438 0.041146543 0.009440075
000080 27 a6 a7 bc 5a e0 d9 bc 56 0c 3a be 47 e2 46 3f
       -0.02046497 -0.026596237 -0.18168768 0.7768902
000090 81 64 14 be a8 26 75 b9 46 e2 22 bd 28 07 51 c0
       -0.14491464 -0.00023379421 -0.039766572 -3.2660618
0000a0 a8 10 49 3c 28 2c 70 3c 68 a6 d2 3d d3 a4 14 be
       0.012272038 0.014658965 0.10285646 -0.14516
0000b0 f3 c2 41 be f9 1a c0 be 42 58 6a 3c 5c ae 1c bd
       -0.18922023 -0.37520579 0.014303269 -0.03825222
0000c0 ea 4a 3e 3e 12 9c 6d be 66 5e 9f 3c c2 21 d2 3d
       0.18583265 -0.23204067 0.019454192 0.10260345
0000d0 4a 57 1f bb d0 ca 3f 3e 4e 94 4f 40 af 5b bf 3a
       -0.0024313503 0.1872971 3.2434268 0.0014599467
0000e0 ed 7c a4 3c a8 48 41 bd 2c 42 eb bd 6b d0 cc 3a
       0.0200791 -0.04718843 -0.11487231 0.0015626078
0000f0 0a 0f 78 bd c5 7c f7 3b d5 84 29 3c 2e ce 4f bc
       -0.060561217 0.0075527155 0.010346611 -0.012683434
000100 3d e3 bf be 8f c3 47 3d f4 50 6b 3e 14 82 91 3d
       -0.37478057 0.048770484 0.229801 0.071048886
000110 5a 14 ef 3d bb 85 56 bd ff ee 5c bd 52 69 22 bd
       0.11673804 -0.05237363 -0.053938862 -0.039651223
000120 6a c8 c7 3d 73 24 09 3f c9 ca f0 3e b6 17 40 3e
       0.09755023 0.5357124 0.47029713 0.18759045
000130 d5 16 1d be 3c fe 88 bd 2a 68 01 be a9 84 fe bd
       -0.15340741 -0.06689116 -0.12637392 -0.12427647
000140 cd 09 42 3f 82 1d 27 3e f3 ec 9e 3c a4 a8 75 be
       0.75796205 0.1631985 0.019400096 -0.23990113
000150 7b f9 ab be 52 41 8a 3e 72 58 0f be af ff 3b be
       -0.33588776 0.2700296 -0.13998583 -0.18359254
000160 32 d3 61 3d 3a 10 be 39 66 01 0c bd 6b 53 4c 3e
       0.055133052 0.00036251714 -0.03418102 0.19953696
000170 e1 8c 2b bd dc ad b1 3e 13 d0 54 be 2a f3 6b 3e
       -0.0418824 0.34702957 -0.20782499 0.23041978
000180 dd b7 28 be 95 14 8a 38 29 2f 23 be db 5f 2f bd
       -0.16476388 6.5841865e-05 -0.15935959 -0.042816024
000190 05 ae 63 3f 8b 37 3d bd c9 03 11 be 25 39 f8 bd
       0.8893741 -0.046195548 -0.141616 -0.121202745
0001a0 ad 11 c5 3d ee f6 39 be 4a f3 f7 be da f4 b7 3b
       0.09622512 -0.18160602 -0.48427802 0.0056139054
0001b0 0e 5a b0 3f fb c2 fb be 33 b8 ad c0 26 0e 97 3f
       1.3777483 -0.49172196 -5.4287353 1.1801193
0001c0 68 f3 a7 3e 4a 35 b2 39 f3 a3 d0 bd 41 d1 a4 3d
       0.32802892 0.0003399051 -0.10187521 0.080477245
0001d0 9b 90 4f bc fd 14 63 3e 9b e5 ed 3a 70 79 86 3e
       -0.012668754 0.22175975 0.0018150093 0.26264524
0001e0 16 70 59 bd e6 83 ab be cd 8b fa 3d 15 c9 4b bd
       -0.05308541 -0.33499068 0.12233696 -0.049752314
0001f0 de 45 7f bd 89 1e f2 3d f8 ec 30 3f 45 89 80 3c
       -0.06232249 0.1182223 0.69111586 0.015690455
000200 ed d6 03 3d 40 a7 05 3d d8 ac 71 3f 4e 6f 1f 3b
       0.03218739 0.032630205 0.94404364 0.0024327817
000210 54 b8 51 bd 16 fb 78 bd c0 83 7e bb c9 dd f6 be
       -0.05120118 -0.06078633 -0.0038835853 -0.48216084
000220 5a 96 85 b9 5f d0 fc 3b d5 e3 ef 3d 68 93 68 be
       -0.00025479757 0.0077152695 0.117133774 -0.22712481
000230 1b 8b e0 bd 55 c0 3c bf 9c c5 72 3e cb 4e de c0
       -0.10964032 -0.73730975 0.23708194 -6.9471183
000240 f7 ec a2 be 70 c8 e2 3e 35 dd d9 3d 81 49 d8 bc
       -0.31821415 0.44293547 0.10637895 -0.026402237
000250 b4 4b 02 3f 1b 6a 5c bf 28 0c 90 3e 06 08 df bd
       0.50896764 -0.86099404 0.28134274 -0.10890202
000260 fa ba ac 3d 68 50 07 bd 25 33 10 3d a1 f8 5a bd
       0.084341004 -0.033035666 0.035205025 -0.053459767
000270 45 10 0d be 44 b8 b4 3e ab 9a 06 3d 41 ae d6 be
       -0.13775738 0.35296834 0.032862347 -0.4192982
000280 59 b9 c0 39 fd 43 1b be b9 15 49 3f 6f 41 63 3f
       0.00036759189 -0.15162654 0.7854877 0.8877172
000290 9a c3 30 be e3 84 b7 3d 24 a6 b9 be 0a 6b 10 3d
       -0.17262116 0.08960893 -0.36259568 0.03525833
0002a0 3a 66 ed 3e 09 1c bb 3e 0b 79 0e 3f 0c 6b bc 3e
       0.46367055 0.36544827 0.55653447 0.3680042
0002b0 a3 07 f5 3d a0 e3 17 bd 15 71 2c 40 05 1f 2a 3d
       0.11964347 -0.037082314 2.694402 0.04153349
0002c0 62 fe 36 bd 30 af 26 3b 41 12 3c 3e 56 57 91 3e
       -0.044676192 0.002543401 0.18366338 0.28386945
0002d0 f5 bf ea be ea ae 93 3f e0 10 1e 3e 79 1d 4c 3f
       -0.45849577 1.1537755 0.15436125 0.7973247
0002e0 22 10 ed bf e2 72 e3 bb 9a 1a 2a bf 49 bb 9a be
       -1.8520548 -0.0069411853 -0.6644684 -0.30221012
0002f0 30 38 c1 bb 82 bb ad 3e 88 38 fe 3d c6 37 63 be
       -0.0058965907 0.3393212 0.12413126 -0.22189245
000300 ee e0 e5 ba 25 75 29 3c 62 53 61 3f fa 01 63 bc
       -0.0017538348 0.010342871 0.8801786 -0.013855452
000310 ff 7d 79 3c 24 94 3f bc 0d d1 31 3f 4e d3 ae 3e
       0.015227794 -0.011693034 0.6945961 0.34145588
000320 5f d2 da be f0 8c 17 bd 95 c2 93 3d 0a 6a 75 bc
       -0.42738625 -0.036999643 0.07214848 -0.014978895
000330 66 0c 7d bc f6 d9 3c 3e d7 29 17 bb 1e 1b 4a 3f
       -0.015444851 0.1844252 -0.002306571 0.7894763
000340 e9 b3 ed 3d ee e7 c0 be 7e ba 05 be cd fb 98 bc
       0.11606581 -0.37676948 -0.13059422 -0.018674755
000350 93 c2 c6 bd 39 99 97 3e 4b 49 cd bd 4b 82 95 3f
       -0.09705081 0.29609087 -0.10023745 1.1680387
000360 c2 49 1a bd 5d e1 7a 3e 2e 03 7e bd f0 0c b1 3c
       -0.037667997 0.24500032 -0.06201475 0.021612614
000370 a2 5b 3c 3b 2e 9d 95 3a 1f ed d3 bd a7 34 38 3e
       0.002874114 0.0011414641 -0.10347962 0.17988835
000380 33 5c 95 3e 66 1f 5c be d9 9f b2 ba e5 16 86 bf
       0.29171905 -0.21496353 -0.001362796 -1.0475737
000390 35 c8 3b 3d 00 c3 3f 3e 7a 9d ee bc c9 1c 07 3d
       0.04584523 0.1872673 -0.029127825 0.032986436
0003a0 31 94 4e 3d 5b e2 17 bd 53 64 41 3d 2c 05 0d bc
       0.050434295 -0.037081104 0.047214817 -0.00860719
0003b0 92 71 25 3f 01 a1 6a bf 17 29 05 3e d8 46 d9 3b
       0.6462642 -0.9165192 0.13003956 0.0066307597
0003c0 da 24 b5 be 1f 7d c6 3e 88 a6 e8 3c e3 36 d7 3e
       -0.35379678 0.38767335 0.02839972 0.42034063
0003d0 bc 8e 85 3e 67 fb 52 3f 93 35 6f 3d 5b b2 5f 3e
       0.2608546 0.8241486 0.0584007 0.21845381
0003e0 f6 9b 62 be 0d 74 01 be ec 00 5d bd 50 ab 1f 3e
       -0.22129807 -0.12641926 -0.053955957 0.15592694
0003f0 16 f0 0d bd 2f 4b 13 be af 2b 07 bd fe cd 0c 40
       -0.034652792 -0.14384149 -0.033000644 2.2000728
