save/critic.pth (torch, 492383 bytes, 5 tensors)

before_action.0.weight f4 [400, 3]
2.17102 -1.3837435 -0.7143641 -0.30076104 1.0982008 0.45792004 -1.4062848 0.27597398
0.1461925 -0.5728713 -2.1455698 -0.5218906 1.9559498 1.1555629 0.68388987 0.30989388
1.7138876 -0.0422633 0.13165432 0.24258466 -2.2561755e-05 0.50007737 3.263538 0.69891995
0.018137248 -0.22984228 -0.0065853545 0.12947914 0.29117516 0.0039286255 0.3188888 -3.6102889
-0.89158714 0.40336192 -1.0096487 0.39617437 0.55934954 2.4616194 -0.15669107 -0.004800686
0.04841212 0.0002913976 -0.5055361 0.54150283 0.00039797727 -1.3568751 0.33441535 0.10257173
0.44833362 -2.5579236 -0.4403992 -0.7448089 0.02146839 0.00057070376 -0.042173307 0.015260809
-0.0014162966 0.41493213 -2.0450678 -0.4339691 -0.08611806 0.024801051 -0.0010463555 -1.2558693
2.4064894 0.38247508 1.0379467 -0.84283763 0.01677847 0.03646352 -2.7358341 0.038123943
-0.30138528 -0.09702225 0.0006575013 -0.157154 0.25048915 0.010733376 0.4802408 -2.8209102
-0.57548964 0.0073343203 0.23760504 0.0046306425 0.83287346 2.5890155 0.59393215 -0.10582911
-0.13232218 -0.0009451666 -0.17139098 -0.1486462 0.001470209 1.4967881 0.26427275 0.28614083
0.06545662 -0.8603644 -0.50513744 0.21518731 -0.32710016 -0.027925951 0.045401715 1.542007
0.020813715 0.45676732 -3.3102643 -0.7117629 -0.17838009 0.010260789 0.0043295356 -0.32160008
-0.13259502 -0.0046447255 0.13219841 -0.16983184 0.6470127 0.045317575 -0.113306716 -0.0020063422
-0.53104687 -0.27964863 0.001088176 1.2315235 -0.17199963 -0.050147943 -0.5466613 0.28517306
0.0032141053 -0.0066816937 -3.5150213 -0.76615417 0.0030837604 -0.82987 0.3738214 0.014564145
-0.14782275 0.039179057 -0.05960839 -0.22751732 -0.0023117426 0.8508432 -1.8916545 -0.020084843
-0.16611844 0.110437654 -0.00010795067 0.91456026 1.744816 0.22239217 0.83615166 -1.6657267
-0.73915696 -0.41819605 -0.18258616 3.2195818e-05 0.1079975 -1.8569285 -0.32374123 -0.42209458
-0.106153145 0.0015850536 0.20125163 -0.32041508 -0.0025173982 1.4723142 1.0504752 -0.7545224
-0.011496673 0.0074758483 0.00080818246 0.8957751 3.0911677 0.71233726 -0.48478034 -0.6474293
0.013455839 -0.8257779 0.016239911 -0.001895168 -0.7304892 -0.44059122 -0.17394751 0.3472769
-2.032034 -0.028617756 -0.5303928 2.9087064 0.62640244 0.032053415 -0.036173914 -0.0009925149
-0.26073134 -1.7695355 -0.31422296 0.024187436 0.04296366 0.002125189 -0.5056137 -0.2358274
0.0020692258 0.04936402 0.1694897 0.002199983 0.21408352 1.6571168 0.18923429 -1.0789046
-1.0814171 -0.36633337 0.8677995 -0.8882996 0.53758955 -0.5041463 -0.2776384 -0.0039478485
1.9818828 1.3351026 0.6429998 -0.6632982 -0.933888 -0.2550563 0.6545633 1.3722204
0.5247989 0.007935628 0.0119753 -0.0028427984 1.0632392 1.7742473 0.017232662 1.5751876
-1.1435218 0.4433002 0.7796037 -2.1752052 -0.43676943 -0.16193327 -0.052456625 -0.0011891872
1.6142826 1.485129 0.27795762 0.32792968 -1.5853298 0.04174746 -0.48408532 -0.31006184
0.0001658533 0.010871815 -1.7301954 -0.33993897 -0.070792325 0.5099093 -0.0010195201 -0.14355192
00000000: fef1 0a40 821e b1bf 91e0 36bf 5afd 99be
00000010: d891 8c3f 7f74 ea3e 2401 b4bf 764c 8d3e
00000020: 7db3 153e b2a7 12bf 0451 09c0 9f9a 05bf
00000030: 905c fa3f 7ce9 933f 6813 2f3f 69aa 9e3e
00000040: ab60 db3f 481c 2dbd 64d0 063e 1d68 783e
00000050: 0043 bdb7 1205 003f cedd 5040 6bec 323f
00000060: 9194 943c c65b 6bbe f5c9 d7bb 2e96 043e
00000070: e914 953e b3bb 803b 6545 a33e f90e 67c0
00000080: 0e3f 64bf 7485 ce3e 2b3c 81bf 5ed7 ca3e
00000090: 8831 0f3f 2c8b 1d40 a073 20be 134f 9dbb
000000a0: ca4b 463d b9c6 9839 d06a 01bf ee9f 0a3f
000000b0: 9ba7 d039 15ae adbf 7d38 ab3e 2111 d23d
000000c0: fc8b e53e 05b5 23c0 017c e1be ccab 3ebf
000000d0: 7ade af3c 489b 153a ebbd 2cbd 7908 7a3c
000000e0: 07a3 b9ba fc71 d43e 64e2 02c0 3331 debe
000000f0: aa5e b0bd 932b cb3c dd25 89ba 53c0 a0bf
00000100: ec03 1a40 c6d3 c33e 70db 843f 35c4 57bf
00000110: 0073 893c c65a 153d e817 2fc0 da27 1c3d
00000120: 2c4f 9abe 9ab3 c6bd 2a5c 2c3a faec 20be
00000130: 1d40 803e 0bdb 2f3c 1fe2 f53e cb89 34c0
00000140: 4a53 13bf bd54 f03b bc4e 733e a5bc 973b
00000150: 3237 553f 6eb2 2540 f00b 183f efbc d8bd
00000160: 777f 07be 0fc5 77ba 1e81 2fbe b636 18be
00000170: 07b4 c03a c196 bf3f c24e 873e 0d81 923e
00000180: 1f0e 863d d740 5cbf b050 01bf 105a 5c3e
00000190: ac79 a7be f7c4 e4bc 26f7 393d 7c60 c53f
000001a0: 8681 aa3c 68dd e93e 5fdb 53c0 1836 36bf
000001b0: 45a9 36be de1c 283c c7de 8d3b c4a8 a4be
000001c0: fdc6 07be c832 98bb 055f 073e 66e8 2dbe
000001d0: a0a2 253f ec9e 393d 5a0d e8bd d67c 03bb
000001e0: b0f2 07bf 1b2e 8fbe 21a1 8e3a 90a2 9d3f
000001f0: ac20 30be ee67 4dbd fff1 0bbf 3402 923e
00000200: bda3 523b 1cf2 dabb 1cf6 60c0 ae22 44bf
00000210: ea18 4a3b 5c72 54bf 8565 bf3e 749e 6e3c
00000220: d95e 17be 387a 203d ed27 74bd 4dfa 68be
00000230: 9b80 17bb dcd0 593f bc21 f2bf f888 a4bc
00000240: f41a 2abe 232d e23d 9363 e2b8 9f20 6a3f
00000250: 2156 df3f c6ba 633e 090e 563f 8836 d5bf
00000260: 6439 3dbf cb1d d6be def7 3abe ff09 0738
00000270: cb2d dd3d d5af edbf 69c1 a5be c81c d8be
00000280: d266 d9bd 93c1 cf3a e814 4e3e 720d a4be
00000290: effa 24bb cb74 bc3f f975 863f 6128 41bf
000002a0: 8b5c 3cbc f6f7 f43b 35dc 533a 8451 653f
000002b0: b1d5 4540 bc5b 363f 2135 f8be edbd 25bf
000002c0: e175 5c3c 2e66 53bf 9009 853c 4967 f8ba
000002d0: 5701 3bbf 2c95 e1be 4c1f 32be 47ce b13e
000002e0: d80c 02c0 c96f eabc d3c7 07bf 3f28 3a40
000002f0: e95b 203f 714a 033d 192b 14bd 4617 82ba
00000300: 947e 85be 2480 e2bf d5e1 a0be bb24 c63c
00000310: aafa 2f3d c146 0b3b e66f 01bf bd7c 71be
00000320: d99b 073b ed31 4a3d b58e 2d3e 972d 103b
00000330: b638 5b3e 671c d43f a2c6 413e 8c19 8abf
00000340: e06b 8abf 0c90 bbbe 1c28 5e3f 9a67 63bf
00000350: 789f 093f bb0f 01bf 9f26 8ebe f45c 81bb
00000360: 56ae fd3f a4e4 aa3f a39b 243f e9cd 29bf
00000370: 4913 6fbf bd96 82be 7691 273f eba4 af3f
00000380: 3959 063f 7004 023c 0c34 443c 3e4e 3abb
00000390: 3918 883f 891a e33f 832b 8d3c bf9f c93f
000003a0: ec5e 92bf 3ef8 e23e 1c94 473f 9036 0bc0
000003b0: 3ea0 dfbe d6d1 25be c2dc 56bd 80de 9bba
000003c0: d0a0 ce3f b518 be3f 7650 8e3e 66e6 a73e
000003d0: 16ec cabf 62ff 2a3d 08da f7be 6dc0 9ebe
000003e0: e8e8 2d39 b21f 323c 0b77 ddbf 7b0c aebe
000003f0: 91fb 90bd 6a89 023f 6ba1 85ba 46ff 12be

before_action.0.bias f4 [400]
-1.8974692 -1.9474205 0.7720165 0.06300323 -1.9920275 -0.8780022 -0.2782463 -1.2363763
-0.27731404 -0.3586918 -1.112784 0.25652865 -0.72200006 -0.052317064 -0.7477205 0.5722339
-1.126112 -0.75623786 -0.057428423 -0.92508626 -0.11744937 -0.30141172 -0.56045556 -0.42813146
-0.3368578 -0.39459702 -1.1136832 -0.2760063 -1.2335091 -0.1833547 -0.2490652 -1.7968372
-0.72841525 -0.54387957 -1.0606161 0.2539778 -0.21348076 -0.3953389 -2.4008253 -0.14119028
-0.6094839 -0.0024161998 -0.6521516 -0.7951772 -0.93034625 -0.43762967 -0.2650163 -0.69849163
-0.2039288 -1.6515799 -1.8285508 -0.46038583 -0.72416425 -0.44968522 -0.39706615 -2.2166991
-0.023383148 -1.5443746 -0.93202734 -0.8615165 0.37984228 -0.9782298 -0.14922911 -0.054503553
-0.44777465 -0.06216409 -0.57832164 -0.19045117 -1.3492358 0.7952435 -1.660229 -0.61585385
-1.5949675 0.21159922 -1.136089 -0.04006257 -1.5270568 -1.333405 -1.2431111 -0.18301271
-1.1734182 -1.034933 -0.59189606 -0.4774478 -0.53495497 -0.46207917 -0.17647041 -1.1598929
-2.3417835 -0.038580883 -0.7073276 -1.5013709 -1.3569716 -0.27548298 -0.09337782 -0.85242236
-0.1877528 -1.4427099 -0.28138396 -1.0232382 -2.409979 -0.22464815 -0.20280932 -1.3012782
-2.6477232 -0.7487332 -0.17543186 -0.23001376 0.5319057 -0.12529092 -0.7836616 -0.059885237
-0.94017696 -0.6448983 -0.278235 -0.09303729 0.024137085 -0.13039581 -0.24252528 -0.15035021
-0.39149404 -1.3624778 -0.5591807 -0.9313653 -0.9219213 -1.3520929 -2.5042877 -0.2993765
0.21252182 -0.06309179 -0.5155851 -0.026486425 -0.8072988 -2.565871 -2.863976 -0.06331708
0.6697769 -0.17603178 -0.7653755 -1.5543052 -0.18388313 -2.144188 -1.5254799 -0.46984303
-0.18754634 -0.47523817 -0.7395707 -0.36476594 -0.30571485 0.16494848 -1.9336612 -0.37411234
-1.3053935 -1.7567421 -2.7901652 -1.2632675 -0.82338965 -2.0217514 -1.2761211 -1.2723842
-0.5099386 -1.2572565 -1.685988 -0.08721528 -2.65662 -0.92555076 -0.08281066 -1.1031259
-1.2098637 0.35177097 -1.2404274 -1.355844 -0.1166169 -0.20694534 -0.5746136 -0.44839787
-0.73260885 -1.4808676 -0.12559806 -0.58230764 -0.22536589 -0.95000976 -1.5165507 -0.52973837
-0.57662934 -0.0798102 -1.553029 0.045183662 -0.15362504 -0.7052721 -0.11946981 0.6174074
-0.68713975 0.09733857 -2.6053295 -1.2330827 -0.6419593 -0.18145916 0.24430102 -0.4839603
0.24976784 -0.31688207 -1.0587794 -0.32971603 -0.82942057 -0.053860772 -1.5136232 -0.067566104
-0.58627087 -0.36309606 -0.5396207 -0.229648 -2.5748289 -1.5752467 -0.58909494 -0.3099447
-1.202801 -0.5801957 -1.1668952 -0.1468283 -1.8261102 -0.71255916 -1.422538 -1.1444143
-1.0492672 -0.45843878 -0.9731768 -0.015714789 -0.061936215 -0.020209162 1.0644209 -0.7380139
-1.2902402 -0.36506832 -0.3904256 -0.16893797 -0.1382525 -0.5370022 -0.40893853 -0.24181233
-0.09993565 -0.1483232 -0.045075577 -2.7747705 -0.4429116 -2.332431 -1.3501749 -0.99274
-0.71206224 -0.5576005 -0.1462131 -0.5098801 -0.061253108 -1.1726463 -0.7096886 -0.44522336
00000000: 45e0 f2bf 1345 f9bf e0a2 453f d607 813d
00000010: c2fa febf c1c4 60bf 4d76 8ebe 9441 9ebf
00000020: 1bfc 8dbe 74a6 b7be b56f 8ebf b957 833e
00000030: ffd4 38bf 6b4a 56bd 9c6a 3fbf ec7d 123f
00000040: 7024 90bf ce98 41bf 113a 6bbd 74d2 6cbf
00000050: 4c89 f0bd a352 9abe 047a 0fbf 0c34 dbbe
00000060: a078 acbe 9f08 cabe 2c8d 8ebf b350 8dbe
00000070: a0e3 9dbf 56c1 3bbe f30a 7fbe c3fe e5bf
00000080: 6c79 3abf b13b 0bbf 45c2 87bf 6109 823e
00000090: b39a 5abe dc69 cabe 1fa7 19c0 2f94 10be
000000a0: 2307 1cbf 1b59 1ebb 68f3 26bf bc90 4bbf
000000b0: 2c2b 6ebf ff10 e0be 37b0 87be 59d0 32bf
000000c0: b6d2 50be f866 d3bf f40d eabf b1b7 ebbe
000000d0: d462 39bf 243d e6be 414c cbbe 66de 0dc0
000000e0: 048e bfbc 11ae c5bf 5899 6ebf 588c 5cbf
000000f0: b07a c23e 456d 7abf 84cf 18be 1e3f 5fbd
00000100: b842 e5be c69f 7ebd e30c 14bf a205 43be
00000110: c2b3 acbf 1495 4b3f 6282 d4bf 99a8 1dbf
00000120: e527 ccbf 77ad 583e 5d6b 91bf a618 24bd
00000130: 9976 c3bf 04ad aabf 441e 9fbf af67 3bbe
00000140: 9132 96bf af78 84bf 8086 17bf 0a74 f4be
00000150: cff2 08bf a495 ecbe a9b4 34be 5f77 94bf
00000160: c8df 15c0 fd06 1ebd 6c13 35bf ec2c c0bf
00000170: 3fb1 adbf 1b0c 8dbe df3c bfbd 5a38 5abf
00000180: 4542 40be b8aa b8bf 8f11 90be 78f9 82bf
00000190: 193d 1ac0 2a0a 66be 3fad 4fbe 4990 a6bf
000001a0: 4c74 29c0 fbac 3fbf 69a4 33be ba88 6bbe
000001b0: f92a 083f 434c 00be 0c9e 48bf 394a 75bd
000001c0: 70af 70bf 0e18 25bf d174 8ebe 568a bebd
000001d0: 23bb c53c 7b86 05be 8c58 78be 68f5 19be
000001e0: e871 c8be ac65 aebf 7726 0fbf f56d 6ebf
000001f0: 0903 6cbf 6111 adbf 4046 20c0 e047 99be
00000200: 529f 593e 4536 81bd 63fd 03bf 0ffa d8bc
00000210: 22ab 4ebf 3b37 24c0 624b 37c0 63ac 81bd
00000220: 8076 2b3f ad41 34be a6ef 43bf 79f3 c6bf
00000230: dc4b 3cbe 603a 09c0 ed42 c3bf 448f f0be
00000240: 260c 40be 6b52 f3be 8154 3dbf 9ac2 babe
00000250: a886 9cbe 41e8 283e 3682 f7bf a78b bfbe
00000260: 2217 a7bf eddc e0bf 1192 32c0 c0b2 a1bf
00000270: aac9 52bf 6064 01c0 f057 a3bf 7cdd a2bf
00000280: 568b 02bf c8ed a0bf 74ce d7bf ed9d b2bd
00000290: 1006 2ac0 e5f0 6cbf a398 a9bd 3b33 8dbf
000002a0: d0dc 9abf 531b b43e 53c6 9ebf 4c8c adbf
000002b0: d7d4 eebd 7be9 53be e019 13bf 6894 e5be
000002c0: 418c 3bbf 128d bdbf c79c 00be 1d12 15bf
000002d0: 51c6 66be d733 73bf 551e c2bf ef9c 07bf
000002e0: fb9d 13bf 8873 a3bd a7c9 c6bf 8112 393d
000002f0: e24f 1dbe b68c 34bf 96ac f4bd 690e 1e3f
00000300: 64e8 2fbf 7259 c73d b8bd 26c0 a7d5 9dbf
00000310: 7257 24bf 6ed0 39be 0c2a 7a3e a5c9 f7be
00000320: 24c3 7f3e 5e3e a2be 1586 87bf 8ad0 a8be
00000330: e854 54bf 1d9d 5cbd 68be c1bf 1960 8abd
00000340: d915 16bf bae7 b9be 9524 0abf d828 6bbe
00000350: ffc9 24c0 afa1 c9bf edce 16bf 12b1 9ebe
00000360: 62f5 99bf b587 14bf d25c 95bf 285a 16be
00000370: fbbd e9bf 476a 36bf ba15 b6bf 2b7c 92bf
00000380: 634e 86bf 7db8 eabe 1d22 79bf 4dbc 80bc
00000390: d4b0 7dbd af8d a5bc f23e 883f 7bee 3cbf
000003a0: 9726 a5bf 3cea babe dde5 c7be 13fe 2cbe
000003b0: 1092 0dbe fa78 09bf 6460 d1be a79d 77be
000003c0: 10ab ccbd 09e2 17be 2ba1 38bd d795 31c0
000003d0: 4fc5 e2be 8d46 15c0 88d2 acbf 3524 7ebf
000003e0: b649 36bf e8be 0ebf e3b8 15be 8187 02bf
000003f0: 8ae4 7abd 4619 96bf 27ae 35bf 51f4 e3be

after_action.0.weight f4 [300, 401]
0.015442192 -0.08454066 0.023007477 -0.13361815 -0.031132855 -0.14190304 -0.11858588 -0.06485808
-0.022670865 -0.07099084 -0.19289741 -0.20979007 -0.13135943 -0.097883366 -0.12994705 0.013541059
-0.21131866 -0.23540498 -0.10609965 -0.10701324 -0.14815742 -0.17728525 -0.23342773 -0.080634005
-0.025543341 -0.15954506 -0.071367934 -0.06593491 -0.01634715 -0.06964393 -0.064984985 -0.1259254
-0.14893767 -0.1830594 -0.046183378 -0.1450868 -0.053453103 -0.072161436 -0.15128198 -0.09662913
0.0017518381 0.1316868 -0.101277955 -0.007530898 -0.1138945 -0.062474545 -0.031214584 -0.08288904
-0.022393258 -0.24751659 -0.040485065 -0.10963929 -0.19292219 -0.16387257 -0.089908905 -0.055889167
-0.037522644 -0.10083936 -0.5068644 -0.063082755 -0.12270476 -0.10179218 -0.19312125 -0.14358345
-0.06886063 -0.13056636 -0.074202515 -0.13614762 -0.12675418 -0.1409918 -0.14196646 -0.09826816
0.47533005 -0.07245799 -0.4268106 -0.10727406 -0.07636483 0.010239788 -0.1496795 -0.02902894
-0.22507748 -0.0860478 -0.023141578 -0.12323088 -0.05240679 -0.03923407 -0.17940997 -0.0006859259
-0.29888654 -0.14879276 -0.023652289 -0.14436707 0.07767321 -0.066875584 -0.10074814 -0.13276315
-0.052778933 -0.02325305 -0.072851256 0.014122352 -0.04439278 -0.12894298 -0.11820725 -0.24849297
-0.3973815 -0.13130161 -0.25232798 -0.004902702 -0.047857888 -0.046344724 -0.076629706 -0.11083605
-0.12569554 -0.13818818 -0.17259346 -0.17226425 -0.17106113 -0.0529422 -0.027091328 -0.05974509
-0.14790438 -0.31835306 -0.10059077 -0.12223012 -0.08564587 -0.30394363 -0.23110422 -0.25044507
-0.13107291 -0.21541378 -0.02961458 -0.12463687 -0.08741106 -0.1769458 -0.06732624 -0.2721225
-0.046710722 -0.17689799 -0.13178316 -0.021949973 -0.25668842 -0.07532246 -0.078864224 -0.14282216
-0.07919606 -0.23641668 -0.20949328 0.049490992 -0.21962264 -0.08526686 -0.14934973 0.027365854
-0.1306859 -0.18476309 -0.0075986814 -0.14282294 -0.029468086 -0.15778746 -0.1357127 -0.13087182
-0.084079966 -0.14069296 -0.12430976 -0.12926526 -0.0675309 -0.5521771 -0.20198199 -0.09289142
-0.1658925 -0.12846246 -0.08473333 -0.061272964 -0.1284961 -0.08601407 -0.042496525 0.009792117
-0.0060336976 -0.24711843 -0.29676396 -0.23406741 -0.12155963 -0.0867668 0.19082683 -0.061166037
-0.11204871 -0.10681902 -0.019977635 -0.13623774 -0.04634711 -0.06287753 -0.10164139 -0.11629322
-0.01410596 -0.24663623 0.009348798 -0.052549433 -0.15785784 -0.06710586 -0.05895105 -0.08853834
-0.10036691 -0.5341522 -0.16650489 -0.12119982 -0.14421207 -0.109272845 0.0047971476 -0.10971626
-0.10600704 -0.18738279 0.0389361 -0.052775893 -0.07559948 0.0011184386 -0.06956416 -0.1902717
-0.16568284 -0.13544624 -0.26148728 -0.051968392 -0.33738545 0.124537535 -0.096341185 -0.05036179
-0.07046617 -0.051713042 -0.06323733 -0.041955076 -0.25976074 -0.11058273 -0.013285077 -0.35606554
-0.06841059 -0.08250657 -0.089534864 -0.110514864 -0.30325362 -0.114012636 -0.14292079 -0.13029209
-0.15585521 0.021038335 -0.07233153 -0.33308318 -0.082010046 0.12642965 -0.08237689 -0.07442689
-0.042021167 -0.30190578 -0.12748927 -0.062818356 -0.11326953 -0.14512537 -0.13932537 -0.0707148
00000000: 3f01 7d3c a723 adbd 2d7a bc3c 32d3 08be
00000010: 540a ffbc 084f 11be 27dd f2bd 50d4 84bd
00000020: 40b8 b9bc a563 91bd e686 45be 35d3 56be
00000030: 1683 06be 1377 c8bd d710 05be 51db 5d3c
00000040: eb63 58be 010e 71be c64a d9bd c229 dbbd
00000050: 94b6 17be 448a 35be ae07 6fbe 7123 a5bd
00000060: 4540 d1bc c85f 23be 5a29 92bd e208 87bd
00000070: 75ea 85bc 7aa1 8ebd d916 85bd 97f2 00be
00000080: 1e83 18be ec73 3bbe c82a 3dbd a291 14be
00000090: a4f1 5abd 60c9 93bd aae9 1abe 7ee5 c5bd
000000a0: ef9d e53a e8d8 063e d16a cfbd c0c5 f6bb
000000b0: 8541 e9bd 4fe5 7fbd bab5 ffbc bbc1 a9bd
000000c0: 1172 b7bc fd74 7dbe abd3 25bd 908a e0bd
000000d0: 658d 45be 36ce 27be 2922 b8bd 0aec 64bd
000000e0: 58b1 19bd de84 cebd dec1 01bf 8831 81bd
000000f0: a24c fbbd 6b78 d0bd 94c1 45be 8a07 13be
00000100: cd06 8dbd 30b3 05be 7df7 97bd 486a 0bbe
00000110: d9cb 01be 2860 10be a85f 11be d140 c9bd
00000120: 765e f33e db64 94bd eb86 dabe 81b2 dbbd
00000130: 2a65 9cbd c9c4 273c 9545 19be 19ce edbc
00000140: b67a 66be d439 b0bd 6893 bdbc 7960 fcbd
00000150: 81a8 56bd e7b3 20bd 3fb7 37be b5cf 33ba
00000160: a807 99be 215d 18be 72c2 c1bc f6d4 13be
00000170: 2213 9f3d 11f6 88bd 0a55 cebd 10f3 07be
00000180: b92e 58bd 2e7d bebc 0a33 95bd 7061 673c
00000190: 34d5 35bd a109 04be a516 f2bd f174 7ebe
000001a0: 9775 cbbe ee73 06be 2231 81be d8a6 a0bb
000001b0: a206 44bd f7d3 3dbd 09f0 9cbd 03fe e2bd
000001c0: 55b6 00be 3481 0dbe 57bc 30be 0a66 30be
000001d0: a62a 2fbe ecd9 58bd a2ee ddbc 44b7 74bd
000001e0: 3f74 17be 2cff a2be 8902 cebd c953 fabd
000001f0: 1a67 afbd 809e 9bbe 96a6 6cbe 563a 80be
00000200: fa37 06be 6e95 5cbe 479a f2bc 9e41 ffbd
00000210: 9204 b3bd 4831 35be 57e2 89bd a453 8bbe
00000220: be53 3fbd bf24 35be 2af2 06be 6ed0 b3bc
00000230: aa6c 83be a942 9abd 9183 a1bd f93f 12be
00000240: 8b31 a2bd 3717 72be 6885 56be 11b7 4a3d
00000250: c2e4 60be 64a0 aebd 23ef 18be 5b2e e03c
00000260: 86d2 05be 8932 3dbe 5cfe f8bb 2d40 12be
00000270: 0e67 f1bc 0993 21be 45f8 0abe 4303 06be
00000280: 1e32 acbd d111 10be 1e96 febd 1d5e 04be
00000290: a44d 8abd 7a5b 0dbf 5ed4 4ebe db3d bebd
000002a0: b9df 29be aa8b 03be ab88 adbd 5cf9 7abd
000002b0: 7b94 03be 2528 b0bd d610 2ebd 1e6f 203c
000002c0: 53b6 c5bb 9d0c 7dbe 72f1 97be 5eaf 6fbe
000002d0: 41f4 f8bd cbb2 b1bd 1c68 433e 3d89 7abd
000002e0: cb79 e5bd eec3 dabd 23a8 a3bc e881 0bbe
000002f0: 78d6 3dbd efc5 80bd 5c29 d0bd 242b eebd
00000300: af1c 67bc 358e 7cbe b32b 193c 133e 57bd
00000310: 7ca5 21be cc6e 89bd a876 71bd 9753 b5bd
00000320: 2b8d cdbd 33be 08bf 4280 2abe 9c37 f8bd
00000330: 54ac 13be 71ca dfbd 6431 9d3b ebb2 e0bd
00000340: 381a d9bd 46e1 3fbe 767b 1f3d 892b 58bd
00000350: e6d3 9abd 9298 923a a877 8ebd 96d6 42be
00000360: c3a8 29be 6bb2 0abe a9e1 85be cfdc 54bd
00000370: c9bd acbe 890d ff3d 874e c5bd 2a48 4ebd
00000380: 9150 90bd 0ed1 53bd 9382 81bd 16d9 2bbd
00000390: 5cff 84be 3379 e2bd a7a9 59bc 394e b6be
000003a0: da1a 8cbd 34f9 a8bd 0e5e b7bd 9e55 e2bd
000003b0: 0f44 9bbe 757f e9bd d459 12be 4a6b 05be
000003c0: 8298 1fbe 9658 ac3c 8e22 94bd e189 aabe
000003d0: e2f4 a7bd c676 013e 37b5 a8bd 206d 98bd
000003e0: 631e 2cbd 6593 9abe 8c8c 02be e9a6 80bd
000003f0: dbf9 e7bd bf9b 14be 4fab 0ebe ecd2 90bd

after_action.0.bias f4 [300]
-0.2364549 -0.06418654 -0.030076526 0.5541099 -0.29603988 0.5294749 0.8123789 0.6161975
0.12390268 -0.28802836 -0.14196983 -0.038052667 -0.017258696 -0.13429342 0.017397875 0.26373807
-0.088287674 0.5271659 -0.004055671 0.19923542 2.1781619 -0.24154744 0.046242278 -0.08417778
-0.05747995 -0.02275893 0.0044143973 0.001978137 -0.020003928 -0.91361654 -0.261139 -0.080998115
-0.062510766 -0.028902188 -0.03346692 0.6614815 -0.051384065 0.39378417 -0.01552321 -0.1293638
0.09850957 0.0037916517 -0.050587527 -0.08711963 -0.10650233 0.9123586 -0.006320725 0.934109
-0.85090685 -0.06808595 -0.038996864 1.1944402 0.12545426 -0.14138603 -0.12670434 -0.17784524
-0.0595807 1.5337445 0.29025245 -0.018141542 0.31296855 -0.317664 1.784016 0.69733214
1.5272021 -0.06833689 2.712768 -0.041610733 -0.032827646 -0.0053049307 0.35502186 0.66606337
-0.3049967 -0.050772436 -0.30712613 1.5089375 -0.0284676 -0.109174795 -0.6164746 -0.082783036
-0.04288756 -0.023730712 -0.03277503 -0.06538133 0.06361027 0.26290533 0.7292558 1.0101676
-0.16162983 -0.40419462 -0.011656015 -0.052736 -0.13514763 0.3951806 -0.12484919 -0.06959516
-0.085415035 -0.045771565 0.5072461 -0.07127533 -0.29043654 1.2014477 -0.45801547 -0.055181026
-0.04958975 1.8449556 0.018413812 -0.099338174 -0.17570943 -0.017111216 -0.010716321 -0.035382926
1.6782985 -0.059785187 -0.034534864 0.5274548 -0.007151499 -0.029551608 -0.019465987 0.22092047
2.553643 0.08367747 0.008960453 1.1787337 0.07724443 -0.19386892 0.9479522 -0.3056762
0.0027426532 -0.44403845 -0.21438043 -0.15314934 -0.034619544 -0.05861174 -0.14659855 0.2768395
1.2272731 -0.014051788 -0.057497036 1.0541632 0.58677846 -0.04404175 -0.068878375 1.5796416
-0.03522974 0.9014958 -0.080604 0.08716452 -0.09484557 -0.05629565 -0.01227312 -0.09391743
-0.07205675 -0.052983556 0.62390405 -0.0007549768 0.570034 0.0004910001 -0.006676162 -0.06309376
-0.05255846 0.8394589 -0.045928553 -0.056172214 0.007790682 -0.04038142 0.31127325 -0.043493684
1.1114358 -0.08493839 -0.05182116 -0.12504278 -0.17392088 -0.059647176 -0.11556984 1.0437427
-0.028147431 -0.015015062 0.8875893 -0.0638934 -0.047485948 -0.006826893 -0.016064344 1.306248
-0.01542005 0.0068917875 0.003252696 -0.028917078 0.3702736 -0.018708412 -0.032015778 0.35592172
-0.053458285 -0.07346316 -0.034935366 0.46754846 -0.11342764 -0.022593964 -0.049590833 -0.058422375
-0.046611812 1.1583443 -0.020394687 -0.14374964 2.1752055 -0.49861622 -0.06102751 0.102472186
-0.16883297 -0.008313363 0.6610291 -0.029954115 -0.023683574 -0.0016015732 -0.0037051958 1.3897448
0.5254435 -0.26450834 1.2187182 -0.033763334 -0.009388909 -0.0027583188 -1.0352496 0.25443012
-0.09106096 -0.100877695 -0.24296586 -0.009665502 -0.5297103 1.3735007 -0.5546143 -0.09506148
-0.0052310275 -0.051807042 -0.050135415 -0.032343905 -0.10454706 -0.08823397 -0.10390714 1.017469
-0.08131431 1.7443533 -0.034724686 0.0039334656 -0.019545645 -0.242762 1.5018045 -0.09718343
-0.086321585 -0.063925184 -0.07392157 -0.059971087 -0.04942355 0.31132537 0.20262325 -1.0454113
00000000: 3c21 72be 3c74 83bd 0c63 f6bc 25da 0d3f
00000010: 8a92 97be ab8b 073f 10f8 4f3f 1fbf 1d3f
00000020: b0c0 fd3d 7478 93be 8a60 11be 1ddd 1bbd
00000030: 1c62 8dbc 3784 09be fd85 8e3c ad08 873e
00000040: 2bd0 b4bd 58f4 063f 6fe5 84bb 5f04 4c3e
00000050: 0167 0b40 3658 77be 8b68 3d3d 6665 acbd
00000060: 1970 6bbd f070 babc a6a6 903b a2a3 013b
00000070: 47df a3bc c6e2 69bf 03b4 85be 57e2 a5bd
00000080: a505 80bd 48c4 ecbc 9c14 09bd da56 293f
00000090: 1978 52bd 149e c93e 1055 7ebc f277 04be
000000a0: 63bf c93d 5c7d 783b de34 4fbd c76b b2bd
000000b0: e51d dabd 5590 693f 161e cfbb c421 6f3f
000000c0: 08d5 59bf a670 8bbd 2dbb 1fbd 6be3 983f
000000d0: 1577 003e 80c7 10be c8be 01be 101d 36be
000000e0: e40a 74bd bd51 c43f f89b 943e 929d 94bc
000000f0: 6a3d a03e dba4 a2be a35a e43f 5c84 323f
00000100: 5c7b c33f 36f4 8bbd fe9d 2d40 0470 2abd
00000110: 4876 06bd fcd4 adbb 6dc5 b53e 2183 2a3f
00000120: 8728 9cbe c2f6 4fbd a33f 9dbe dd24 c13f
00000130: e234 e9bc 0997 dfbd 48d1 1dbf 278a a9bd
00000140: deaa 2fbd e966 c2bc 1c3f 06bd a6e6 85bd
00000150: 1a46 823d 879b 863e 82b0 3a3f 2c4d 813f
00000160: 4a82 25be 99f2 cebe dff8 3ebc b401 58bd
00000170: 2464 0abe 1d55 ca3e efb0 ffbd e887 8ebd
00000180: 14ee aebd f77a 3bbd e1da 013f cdf8 91bd
00000190: 19b4 94be 0ac9 993f 0181 eabe 8005 62bd
000001a0: 9f1e 4bbd 8127 ec3f 90d8 963c d071 cbbd
000001b0: 2ced 33be d22c 8cbc 8293 2fbc b0ed 10bd
000001c0: 7cd2 d63f 50e1 74bd 6e74 0dbd 4707 073f
000001d0: 1f57 eabb 3716 f2bc 2277 9fbc fa38 623e
000001e0: e36e 2340 185f ab3d ddce 123c bfe0 963f
000001f0: 5432 9e3d 9385 46be ffac 723f 9781 9cbe
00000200: 16be 333b 0259 e3be 8b86 5bbe 2ed3 1cbe
00000210: 39cd 0dbd dd12 70bd ee1d 16be e8bd 8d3e
00000220: 4917 9d3f 7839 66bc 0382 6bbd d2ee 863f
00000230: 1d37 163f 1f65 34bd 1b10 8dbd b231 ca3f
00000240: 0f4d 10bd 6ec8 663f b613 a5bd 5083 b23d
00000250: 653e c2bd 4496 66bd 3215 49bc c857 c0bd
00000260: 7d92 93bd 4905 59bd 2db8 1f3f a3e9 45ba
00000270: c0ed 113f 75b6 003a b5c3 dabb 4d37 81bd
00000280: 8a47 57bd c7e6 563f 941f 3cbd d614 66bd
00000290: fa48 ff3b fd66 25bd 355f 9f3e 6f26 32bd
000002a0: 8743 8e3f 2ef4 adbd 6d42 54bd 370b 00be
000002b0: 5118 32be 9950 74bd e1af ecbd 5c99 853f
000002c0: 7195 e6bc bc01 76bc 0d39 633f 8bda 82bd
000002d0: a080 42bd 21b4 dfbb 5f99 83bc 2233 a73f
000002e0: 61a4 7cbc 81d4 e13b 2f2b 553b 82e3 ecbc
000002f0: 8094 bd3e 6242 99bc fa22 03bd 5f3b b63e
00000300: 13f7 5abd da73 96bd 6318 0fbd 8362 ef3e
00000310: c04c e8bd fa16 b9bc c21f 4bbd 4d4c 6fbd
00000320: 07ec 3ebd a044 943f c212 a7bc 1b33 13be
00000330: 9136 0b40 a04a ffbe fbf7 79bd f0dc d13d
00000340: 8de2 2cbe c634 08bc 3439 293f 5562 f5bc
00000350: 0e04 c2bc e1eb d1ba dfd2 72bb 28e3 b13f
00000360: 7783 063f a36d 87be f5fe 9b3f 6c4b 0abd
00000370: f0d3 19bc e9c4 34bb 0f83 84bf aa44 823e
00000380: 2b7e babd f798 cebd 0bcc 78be 0e5c 1ebc
00000390: 189b 07bf dfce af3f 34fb 0dbf 98af c2bd
000003a0: 0a69 abbb 9f33 54bd cb5a 4dbd 0b7b 04bd
000003b0: c51c d6bd 03b4 b4bd 44cd d4bd 6d3c 823f
000003c0: 1e88 a6bd f846 df3f 793b 0ebd 4de4 803b
000003d0: 301e a0bc 9a96 78be 213b c03f 1b08 c7bd
000003e0: 5fc9 b0bd 35eb 82bd 3164 97bd 3ea4 75bd
000003f0: 5970 4abd 0a66 9f3e 787c 4f3e 0ad0 85bf

after_action.2.weight f4 [1, 300]
0.029340621 -0.0054777507 0.020758567 -0.35502967 -3.881749 0.7343663 -0.28685167 0.1762831
0.3569575 -6.858641 0.030769292 0.012328096 0.012195678 3.7698047 -0.047155727 -0.015137887
0.010022509 -0.2654093 0.018196745 -11.252016 -0.29392388 -0.49362165 -0.004185796 -0.0050705723
0.011986814 -0.022187402 0.011652093 -0.024263887 0.030905228 0.5794075 0.021489244 -0.037909195
0.009917683 -0.01191815 -0.02291629 -0.8410683 0.018011265 10.574312 0.023005541 -2.073799
5.5223207 0.043734666 0.01735699 0.0020327787 -0.7807067 -0.8431381 -0.028192759 -0.3958316
2.735569 0.009938925 -0.0036618623 -0.13292462 2.0431995 -0.013911733 -0.01558895 -0.0012063351
-0.008810649 -0.7376534 0.29825675 0.012626843 -11.102043 2.081589 -0.6492334 -0.53548336
-0.6718019 -0.027999552 -0.43932462 -0.03168593 0.027360043 -0.022182425 0.5137143 -0.9614098
-0.08301817 0.009484651 2.916228 -0.5899903 0.009567969 -0.030853888 -0.102045834 -0.028570998
0.006860556 0.0032570797 0.012119323 -0.027533371 -0.013672061 -1.1777008 -0.5918111 -0.24257964
1.0343372 -0.649401 0.014859766 -0.031045778 -0.014322015 3.7212267 0.027919589 -0.008918281
-0.028624102 -0.0037238866 1.4629343 0.017693708 16.007381 -0.35690042 -0.14623606 0.02124684
-0.03798352 -0.27179268 0.3288232 0.02616134 0.008427661 0.009669479 -0.02683839 -0.0063520186
-0.622587 -0.024969874 0.027959246 0.8709842 0.012399383 0.009706654 0.046769433 0.44207048
-0.386745 -1.5450453 0.00079178903 -0.51740026 -2.6540012 0.019841606 -1.426209 -0.09113886
0.026743392 1.4831634 -1.081159 2.9475024 -0.0019817066 0.00875895 -3.1213658 -0.5898318
-1.2154073 0.004522304 -0.018723572 0.29787558 -0.40015313 -0.011376856 0.030916166 -0.83263594
-0.021411398 -0.08049646 -0.016726026 0.7148362 0.01854038 -4.032876 0.017005505 -0.018598061
0.025970293 -1.6170809 -0.3395135 0.009435752 1.4140828 -0.026270393 0.025650728 0.0054454883
-0.013511946 -1.0103228 0.03138627 -0.017660253 0.027709583 -0.0055703307 11.7086315 0.0067156195
-0.40234834 0.00077782257 -0.0106503675 -0.012392515 0.010423673 0.009709638 0.030448645 -0.43359634
0.03270554 0.025907738 -1.3124841 0.0026972317 0.026155708 0.011582648 -0.016892886 -0.2153998
0.015063859 -0.002164399 0.029320963 0.027704304 0.02324887 -0.009058095 -0.030506898 -0.40465724
-0.003956956 -0.0074541727 0.17915858 -1.9570485 -0.0010379646 0.020573739 0.0070170774 0.011400513
0.005971509 -0.10341068 -0.012010531 -0.0021496788 -0.2375892 -0.39078575 -0.02336222 1.2195002
-2.2246695 0.038656726 -1.2934928 -0.0058140275 -0.019401617 -0.00030422612 -0.03062031 -0.33665502
-0.35945547 -0.27797562 -0.31238776 -0.0073386347 0.0002513782 0.024307793 0.4367484 0.539532
-0.031375974 0.02302127 -0.48287237 0.015680594 -0.08307457 -0.19289678 -0.34345317 0.01671378
0.013971911 -0.0030579166 0.011363207 -0.0031386926 0.03708685 -0.01045366 -1.2588253 -0.6740273
-0.012546518 -0.32052863 0.028856361 -0.037952535 0.0031166857 0.12674084 -0.05636285 -0.00023957033
0.016544593 0.021610545 -0.024866328 -0.016651548 -0.00030848058 0.39041522 -0.82182 3.1496227
00000000: be5b f03c b47e b3bb df0d aa3c 73c6 b5be
00000010: 936e 78c0 6eff 3b3f 39de 92be 8f83 343e
00000020: 22c3 b63e fd79 dbc0 e20f fc3c c8fb 493c
00000030: 62d0 473c 7b44 7140 5d26 41bd e604 78bc
00000040: 7335 243c bae3 87be 5711 953c 4208 34c1
00000050: 317d 96be fabb fcbe 0029 89bb 0b27 a6bb
00000060: 5864 443c 5bc2 b5bc 6ce8 3e3c 0fc5 c6bc
00000070: f62c fd3c 0d54 143f 360a b03c ac46 1bbd
00000080: c77d 223c 5844 43bc f2ba bbbc 4150 57bf
00000090: 5c8c 933c 6230 2941 1e76 bc3c 1fb9 04c0
000000a0: dab6 b040 1f23 333d 3f30 8e3c 5e38 053b
000000b0: 65dc 47bf e6d7 57bf 80f4 e6bc 71aa cabe
000000c0: 9013 2f40 dfd6 223c dbfb 6fbb 641d 08be
000000d0: c8c3 0240 0aee 63bc cc68 7fbc e41d 9eba
000000e0: 8a5a 10bc dad6 3cbf 1cb5 983e d1e0 4e3c
000000f0: f8a1 31c1 c138 0540 2934 26bf 7015 09bf
00000100: 36fb 2bbf 515f e5bc 28ef e0be 1bc9 01bd
00000110: 2b22 e03c ebb7 b5bc c882 033f f41e 76bf
00000120: 6e05 aabd 8265 1b3c 7ba3 3a40 9b09 17bf
00000130: f8c2 1c3c 4bc1 fcbc 68fd d0bd ba0d eabc
00000140: 84ce e03b bb74 553b 2090 463c aa8d e1bc
00000150: c800 60bc e6be 96bf ef80 17bf cc66 78be
00000160: 2965 843f 253f 26bf 6076 733c b753 febc
00000170: e3a6 6abc 9428 6e40 9fb7 e43c fb1d 12bc
00000180: 187d eabc 730c 74bb 6e41 bb3f 65f2 903c
00000190: 1e0f 8041 a7bb b6be e8be 15be da0d ae3c
000001a0: 9c94 1bbd 6928 8bbe 845b a83e 4e50 d63c
000001b0: 2c14 0a3c bc6c 1e3c 2fdc dbbc 9824 d0bb
000001c0: dd61 1fbf 9f8d ccbc ca0a e53c d2f8 5e3f
000001d0: c826 4b3c a808 1f3c 4e91 3f3d 1057 e23e
000001e0: 7103 c6be 0bc4 c5bf 1090 4f3a 5874 04bf
000001f0: 28db 29c0 dd8a a23c 048e b6bf 03a7 babd
00000200: f514 db3c 4cd8 bd3f 6b63 8abf e1a3 3c40
00000210: 85df 01bb b381 0f3c 75c4 47c0 38ff 16bf
00000220: 7792 9bbf d62f 943b 2d62 99bc 2683 983e
00000230: dfe0 ccbe fe65 3abc e643 fd3c a127 55bf
00000240: f566 afbc 54db a4bd 0505 89bc 81ff 363f
00000250: ffe1 973c 520d 81c0 214f 8b3c f65a 98bc
00000260: a7bf d43c 82fc cebf b7d4 adbe 6a98 1a3c
00000270: aa00 b53f 0235 d7bc 7a21 d23c 1170 b23b
00000280: 3661 5dbc 4252 81bf e48e 003d 3cac 90bc
00000290: 35ff e23c 5287 b6bb 8e56 3b41 b30e dc3b
000002a0: 9a00 cebe cae6 4b3a e17e 2ebc fa09 4bbc
000002b0: 0ec8 2a3c 2c15 1f3c 706f f93c 5700 debe
000002c0: 3ff6 053d 773c d43c 7bff a7bf 0ac4 303b
000002d0: 7f44 d63c 26c5 3d3c f362 8abc c491 5cbe
000002e0: 67ce 763c 97d8 0dbb 8432 f03c 23f4 e23c
000002f0: 6a74 be3c 6768 14bc 9ae9 f9bc 3c2f cfbe
00000300: 5aa9 81bb 2242 f4bb 5975 373e 9180 fabf
00000310: 500c 88ba 428a a83c 83ef e53b 38c9 3a3c
00000320: a6ac c33b fbc8 d3bd d1c7 44bc a0e1 0cbb
00000330: 954a 73be 1215 c8be 2062 bfbc 9518 9c3f
00000340: fc60 0ec0 8456 1e3d 2c91 a5bf 9983 bebb
00000350: 24f0 9ebc 8a80 9fb9 72d7 fabc 0c5e acbe
00000360: 8c0a b8be d252 8ebe 4af1 9fbe ee78 f0bb
00000370: 69cb 8339 2321 c73c 7c9d df3e c51e 0a3f
00000380: 1884 00bd 1a97 bc3c 0c3b f7be 9774 803c
00000390: 0023 aabd bc86 45be 18d9 afbe 56eb 883c
000003a0: 71ea 643c 5467 48bb bf2c 3a3c 86b2 4dbb
000003b0: 61e8 173d d445 2bbc 3021 a1bf 0e8d 2cbf
000003c0: e98f 4dbc 541c a4be 2d64 ec3c 1e74 1bbd
000003d0: 4f41 4c3b 5ac8 013e bbdc 66bd 2c35 7bb9
000003e0: 8788 873c 9908 b13c 78b4 cbbc d468 88bc
000003f0: 90bb a1b9 81e4 c73e cc62 52bf 6b93 4940
